results/navigation/run/trials/default/seed_22/checkpoints/model.196.tar (torch, 89831 bytes, 6 tensors)

input_layer.weight f4 [128, 37]
000000 3e ba ab 3d 69 4c fc 3d 37 90 48 3e 95 6f 23 3e
       0.08385132 0.123192616 0.19586264 0.15960534
000010 45 e5 92 3d c3 aa 9d 3e 13 ad 75 3d b6 db fa bd
       0.07172636 0.30794343 0.05997951 -0.12248938
000020 a9 80 38 be 1d 43 85 3d 85 0b 6c be eb 97 01 3e
       -0.1801783 0.065069415 -0.2305127 0.12655608
000030 82 2d bb bd dc 0c 7f 3e 67 fd ac 3e d4 6c 11 3e
       -0.09139539 0.24907249 0.3378708 0.14201671
000040 bd 10 a9 3b 68 a6 01 3e 29 3f 66 3e ce 3f 18 3d
       0.005159466 0.12661135 0.22485031 0.037170224
000050 9c b4 ed 3d 51 e7 bd bd 83 06 98 bd 77 2d 1d 3d
       0.11606714 -0.09272636 -0.07423117 0.038373437
000060 94 75 69 bd 03 73 06 bd da 42 3b bd d1 91 53 3c
       -0.056996897 -0.032824527 -0.04571805 0.012913183
000070 ec 45 1f bd 62 9f 45 3e 05 5c ea 3d 7c a3 c4 bd
       -0.038885042 0.19299081 0.114433326 -0.09601495
000080 64 64 09 3c 2f 43 9a bc bb 09 94 be 53 27 b3 3d
       0.008385751 -0.018830864 -0.28913674 0.08747735
000090 03 13 04 3d 51 18 74 3d 10 67 cc bc 99 e6 11 3e
       0.032244693 0.059593502 -0.024951488 0.14248122
0000a0 80 22 99 bd 2f 15 75 be d0 d3 d0 bd ee 2e e4 3d
       -0.074772835 -0.23933862 -0.1019665 0.11141764
0000b0 03 02 01 bc c3 bf d5 3d 48 41 39 3e 58 2b 5a be
       -0.007874015 0.10436966 0.18091309 -0.21305597
0000c0 a6 46 f4 3d af 8b c0 3c 71 59 1d 3d 18 dd 9b 3d
       0.119275376 0.023504106 0.038415376 0.0761053
0000d0 6d ff 36 3e 53 e0 0b be 88 2d 72 3d 50 50 d6 bd
       0.17870875 -0.13659792 0.059125453 -0.10464537
0000e0 5f 73 27 be fb 89 07 be d1 cc 72 bd 9f 6d 18 bb
       -0.16352604 -0.13236229 -0.05927736 -0.0023258699
0000f0 60 e7 c6 bd 1b 0b 0e 3e 1c 57 25 3d 66 08 e6 bc
       -0.097121 0.13871424 0.040366277 -0.028080177
000100 ce d8 db 3d 6d 03 30 3e d7 f3 92 3d 44 fb 96 bb
       0.107347116 0.17188807 0.07175415 -0.00460759
000110 cc aa f9 3b bb e4 4b 3d b3 54 0a 3e 5c 80 26 3e
       0.0076192375 0.04977868 0.13508873 0.16259903
000120 71 7d 57 bd d9 7f d0 3d 91 18 87 3d 61 8e 0c be
       -0.052609865 0.10180635 0.065964825 -0.13726188
000130 93 e0 ab 3d d4 9a 67 3c 74 66 ed bd 5f 1e a5 3d
       0.083924435 0.014136035 -0.11591807 0.080624335
000140 94 d8 57 bd 86 ac 24 bd d0 49 c7 bd 20 9d e0 3c
       -0.05269678 -0.040203594 -0.097308755 0.027418673
000150 00 30 03 3e 24 b9 c4 bd 3c 15 84 3e 0f de 05 bd
       0.1281128 -0.09605625 0.2579745 -0.032682475
000160 f4 74 57 bc 9e b5 fd 3d 95 6c 9d 3d 1d b8 25 3e
       -0.013150442 0.12388156 0.07686726 0.16183515
000170 d1 72 a7 3b 7f 59 26 3d cb 7a e4 3c b9 59 a0 3d
       0.0051101227 0.040612694 0.027890584 0.07829613
000180 2c c4 9b 3d 24 0f 98 bb dd 6c 9a bb 73 ce a4 bd
       0.07605776 -0.004640477 -0.0047126845 -0.080471896
000190 89 08 75 3e 87 08 b2 3d e5 ed 0b be 95 2b ae 3d
       0.23929037 0.08693033 -0.13664968 0.08504406
0001a0 d5 c6 1a 3e 3b d5 02 be f6 88 69 3e be 06 73 3d
       0.15114911 -0.12776653 0.22806153 0.0593326
0001b0 1f 0e d8 3c ba 0a 9c 3c 9c 4f 0a bd 8a ad 56 3e
       0.026373921 0.019048084 -0.033767328 0.20964637
0001c0 7d b0 15 3d 31 44 bc 3c 5f b1 9d bd 7e 50 aa bd
       0.036545265 0.022981735 -0.076998465 -0.08316134
0001d0 44 0d 8b 3e 43 2a 9c bd 9e c5 0f be 85 d7 1c be
       0.27158558 -0.07625248 -0.14040229 -0.15316589
0001e0 42 19 03 bf 8a 38 26 3e 24 fd d6 3d 3e 14 20 3d
       -0.51210415 0.16232505 0.104975015 0.039081804
0001f0 b5 6d c2 3c 9d 91 0a be dc 0d 90 3d 65 13 42 3c
       0.023733953 -0.1353211 0.070338935 0.011845444
000200 68 92 b0 3d 9a aa fa 3c 56 4c 9f 3d 94 d1 3f 3d
       0.08621675 0.030598927 0.07778232 0.04683073
000210 e8 04 9a bd 4d 5b 49 bc 0f 9b 02 3b e4 25 62 3d
       -0.07520467 -0.012289834 0.0019928848 0.055211917
000220 45 9d 88 bc da 7c 41 bd 48 89 24 be fa bf 3f bd
       -0.016676554 -0.04723821 -0.16067994 -0.046813942
000230 e4 68 90 be 20 9e e9 3d 94 e4 ec ba 0f 2d 34 bd
       -0.28205025 0.11407113 -0.0018073493 -0.043988284
000240 a9 f1 35 3d dd 9d 35 be 7f a8 b1 3c 97 a1 f6 3a
       0.04441992 -0.17736001 0.02168679 0.0018816468
000250 75 ec a4 bd ab 02 a8 3d 72 d3 0c 3e 41 3e ae 3d
       -0.08052913 0.08203634 0.13752535 0.08507968
000260 7b 8d 36 3e d3 d9 cd bd 42 49 15 3d fb 1a 0d 3e
       0.17827408 -0.10051312 0.036446817 0.13779823
000270 0c a2 9e bd da 6b 19 be 43 97 38 3e 0a 20 a0 3d
       -0.07745752 -0.14982548 0.18026452 0.07818611
000280 36 37 9e 3d 8b 0b 1d bb 08 26 14 be fc 79 67 3e
       0.077253744 -0.002396318 -0.14467633 0.22605127
000290 e7 62 aa 3d 25 de 34 3e 2e cc 02 bd 29 4f f5 bd
       0.083196454 0.17662866 -0.031933002 -0.11977989
0002a0 a6 59 7a 3d e0 fe ef 3d d7 d0 05 3e 77 57 8f 3c
       0.06112065 0.117185354 0.13067947 0.017497761
0002b0 75 4d 9f 3c 01 bf 96 bb e6 55 02 3e 87 a9 3f 3e
       0.019446114 -0.004600406 0.1272808 0.18717013
0002c0 f7 e8 ac 3d 8a 7f 34 be f9 e6 77 3e 9a 21 c5 3d
       0.08442872 -0.17626777 0.24209203 0.096255496
0002d0 6e 1c 00 3d db 6a 0e 3e 90 41 1a be e6 53 a9 3d
       0.031277113 0.1390795 -0.15064073 0.082679555
0002e0 03 03 3e 3d b7 fe cd 3d 7a b9 32 be 90 4c 96 bd
       0.04638959 0.100583486 -0.17453566 -0.07338822
0002f0 6b 3e 14 be d7 57 5d 3e d0 90 52 bd 1b 95 11 be
       -0.14476936 0.2161554 -0.051407635 -0.14217035
000300 45 bb 86 bd f0 57 5f bc b7 81 51 3b c3 4c 1f 3e
       -0.065786876 -0.013631806 0.0031968185 0.15556626
000310 fe bb 29 3e 4d 64 83 bd 78 af aa bc ff a0 0c 3e
       0.1657562 -0.06415615 -0.020835623 0.1373329
000320 13 ec 86 bb e5 3f 1b be 1f a8 2f 3d a7 ba a2 3d
       -0.0041174977 -0.15161093 0.042884942 0.07945757
000330 99 cb 1c 3d 9b ec 70 be 7f 4a fa 3d 6a c7 33 bd
       0.038280103 -0.23527758 0.1222124 -0.043891348
000340 90 8c ae 3d c7 99 15 be dd 36 85 3d f3 d6 c8 bc
       0.08522904 -0.14609443 0.06504605 -0.024516558
000350 e5 b6 bb bd b2 f6 0a be 3f 32 29 3e 27 b7 cf bd
       -0.09165744 -0.1357067 0.16523074 -0.101423554
000360 e7 ed 67 bd c7 73 14 3d ee 3b a7 bc de 27 1f bd
       -0.056623366 0.036243226 -0.020414319 -0.03885638
000370 0f 09 cd bd 1d 12 ae bd 5a 9e 25 3e 60 d1 31 bc
       -0.100114934 -0.084995486 0.16173688 -0.010853142
000380 6b e3 b3 bd 04 f8 15 3e c0 64 06 3e da 3c 2e 3e
       -0.08783611 0.14645392 0.1312437 0.170154
000390 ba f6 0e 3d fd 63 3d 3e 63 51 79 bd 71 d2 ac bd
       0.034903266 0.18495174 -0.060868632 -0.08438576
0003a0 82 88 94 3d 2c a0 30 3e c9 47 4c 3e cc 55 d6 3d
       0.07252599 0.172486 0.19949259 0.10465583
0003b0 7f 66 53 3c a7 69 2d 3e 92 19 54 bd 53 6f 25 3e
       0.012902855 0.16934834 -0.0517822 0.16155748
0003c0 ad 48 28 3e 3b 26 38 3e e7 81 60 bc 28 68 fc 3d
       0.16433974 0.17983334 -0.013702846 0.12324554
0003d0 cf a4 82 bd 46 de a9 3d 8c 57 3b 3e fc 01 c9 bb
       -0.06379091 0.082943484 0.18295115 -0.0061342698
0003e0 a2 33 27 3b 31 77 31 3e 0c ff 80 3e 27 60 85 bd
       0.0025512953 0.17330624 0.25194585 -0.0651248
0003f0 b3 af 6a bd b7 66 c4 3d c5 52 84 3d ea e4 92 3d
       -0.057296466 0.09589904 0.064610995 0.07172568

input_layer.bias f4 [128]
000000 b9 a7 9c bc 01 13 0c be 5b 2e a3 3d 56 99 32 3e
       -0.019122945 -0.13679124 0.07967826 0.17441306
000010 5d db 73 3e bf c1 a5 3d a4 41 a4 bb 43 12 a0 bd
       0.23814149 0.08093595 -0.005012708 -0.07815983
000020 b2 03 10 bd d4 83 26 be 2f 6a 16 3e a1 86 a4 bc
       -0.035159774 -0.16261226 0.14688943 -0.020083727
000030 74 e5 84 3c 7f 20 89 3e 15 a6 40 bd 40 34 4a 3d
       0.016222693 0.26782605 -0.04703339 0.049366236
000040 93 bd f3 3d 07 dc 03 3d 6f 39 1f 3e 5f db 14 3e
       0.11901393 0.032192256 0.15549253 0.14536808
000050 6a 81 0e be 8b a8 cd bd f1 e0 0b 3c 9d 56 5f 3d
       -0.13916555 -0.10041913 0.008537517 0.05452596
000060 d5 51 1b be 1c 97 95 bc 41 8f a6 bd 97 eb e9 3d
       -0.15167935 -0.018260531 -0.08132792 0.11421888
000070 cd 0e e7 3d ce e5 74 3d 14 2e f7 bb 54 8e 82 3e
       0.1128212 0.05978947 -0.0075433347 0.25499213
000080 63 fb 40 3e 97 df 00 be dc cd 57 bd 95 87 3a be
       0.18845896 -0.12585293 -0.052686557 -0.18215783
000090 7f 01 a3 39 ad fb da 3d 5e 33 92 3d 4b 4d 6c 3e
       0.00031090897 0.106925346 0.07138704 0.2307636
0000a0 7f ae 85 3e df c7 ab bd c0 dc e2 bd 3d e0 09 3e
       0.26109692 -0.08387732 -0.11077261 0.13464446
0000b0 fa 5b ae bc 45 3a 0b 3e 4b 62 de bd 53 48 92 bd
       -0.021284092 0.13596447 -0.10858592 -0.07142701
0000c0 68 1b 06 3d 8d a6 58 bd a6 69 76 3d b9 fc bf 3d
       0.03274098 -0.05289321 0.060159348 0.09374375
0000d0 47 54 ef bd 5d 5f bd bd e6 08 0d 3e 75 61 88 bd
       -0.116859965 -0.09246705 0.13772926 -0.066592135
0000e0 d2 0b 5f 3e f7 fc 6a 3e a1 4e ac 3d 75 dd 7a 3e
       0.21781853 0.22948061 0.08413435 0.24498542
0000f0 83 e8 d9 bd 10 10 48 3d 1b a7 9a 3d c3 5c 76 bd
       -0.10640051 0.048843443 0.07551404 -0.06014706
000100 78 bd 07 3e 0d 69 c5 bd 26 c5 25 3e 00 df 19 3d
       0.1325587 -0.096391775 0.16188487 0.037566185
000110 86 73 8e 3e 40 e0 da 3d 49 51 b0 bd 0f 09 27 bd
       0.27822512 0.106873035 -0.08609254 -0.040780123
000120 3f b4 cb 3d ed 53 5d bd 4f 29 74 3d 5f 55 c4 3d
       0.099464886 -0.054035116 0.059609707 0.09586596
000130 22 1c 91 bd cd a2 d7 bd 64 0a 87 bd 42 74 dd 3c
       -0.07085444 -0.10529099 -0.06593779 0.027032975
000140 8a bc df bd 20 d0 0e bd 6b 3a 1c 3c c4 a6 0b bd
       -0.10924633 -0.034866452 0.009535412 -0.034094587
000150 b9 d9 6b bd a4 78 0c 3d 89 09 6a 3d 1b bf b1 bb
       -0.057580683 0.03429474 0.057138 -0.005424393
000160 3a 89 a9 3c df 0b 53 3e fc 9d a8 3c 2e e0 23 3e
       0.020695318 0.20609997 0.020583145 0.16003487
000170 0e 0d 12 3e ff 66 92 bd 18 14 30 be 7c 96 3d 3e
       0.14262792 -0.07148551 -0.17195165 0.18514436
000180 b5 16 b3 3a 0e 2f 85 3d d4 99 e0 3d 16 c0 db 3c
       0.0013663383 0.065031156 0.109668404 0.026824992
000190 6c 04 1c 3e f3 8b 09 be 35 10 e9 3c 0e a9 15 3e
       0.15236062 -0.13432293 0.02845011 0.1461527
0001a0 a6 6f ac bd 23 40 23 3e 35 d3 6e bc 86 08 d0 3c
       -0.08419733 0.15942435 -0.014576723 0.02539469
0001b0 d1 57 89 bd 65 66 21 3c 70 d7 21 bd b5 06 a3 bc
       -0.06706203 0.009851073 -0.039512098 -0.01990066
0001c0 e4 a0 16 3e eb 96 1f 3e 30 62 e2 3c 2d f7 c1 3c
       0.14709812 0.15584914 0.02763471 0.023677433
0001d0 ca 04 6c 3e 4d 68 40 3e f1 f1 28 be 21 cd 23 3e
       0.23048702 0.18789788 -0.16498543 0.15996219
0001e0 ce 77 0a bd 43 4a 7d 3e 80 3b 6b bd 19 5f d2 3d
       -0.03380566 0.2473536 -0.05742979 0.10272045
0001f0 4e be 4d 3d 22 99 99 3c c0 9d f0 3d 60 0a 2b 3e
       0.050230317 0.018749777 0.117488384 0.16703176

hidden_layers.0.weight f4 [128, 128]
000000 af 4c ab bd 8b 55 4a bd f6 85 dd bc 0e bf 48 be
       -0.083642356 -0.049397986 -0.027041417 -0.19604132
000010 47 82 9a 3d 47 b1 41 b9 67 ba eb bc ed 15 3f 3d
       0.0754438 -0.00018471955 -0.028775407 0.04665177
000020 b2 5f 2c 3c 88 9d 18 bd 9a 6f d0 3d e8 17 4e bd
       0.010520862 -0.03725961 0.10177536 -0.050315768
000030 8b 82 6d bb c2 42 24 bd e4 de 13 bd 93 df f2 bc
       -0.003624114 -0.040102728 -0.036101237 -0.029647624
000040 20 7a 75 3c 94 bf 13 3c 8a b2 2b 3d 11 fe ae bd
       0.01498273 0.009017844 0.041918315 -0.08544553
000050 0d 2b 85 3d ea 0e 91 3b 49 90 d0 bc 20 01 57 bd
       0.06502352 0.0044268267 -0.025459426 -0.052491307
000060 96 3d 86 bd 56 cc e4 3d 5f 59 88 bd 17 52 8f bd
       -0.06554715 0.111717865 -0.06657671 -0.06998079
000070 ad 06 15 be 5c 4a 88 bd 58 cb 8b 3d 58 34 0e 3d
       -0.14553328 -0.06654808 0.06825894 0.034717888
000080 7e b7 5d 3c 34 2b bb 3d 74 3f b2 3c 17 e6 41 bd
       0.0135325175 0.091391 0.021758772 -0.04733857
000090 39 81 06 3d a9 89 bd bc 19 db 39 be 73 6d bc 3d
       0.03283808 -0.02313693 -0.18149985 0.09200563
0000a0 85 fd 10 3d 37 98 cc bd 21 42 8d 3d 19 65 a8 bc
       0.035398025 -0.0998997 0.06897379 -0.02055602
0000b0 2a 35 61 3d 7e 3b ab 3d d2 57 5b bd 3e ad b4 3b
       0.05498234 0.083609566 -0.05355055 0.005513816
0000c0 f7 9c 1a 3d 5c db 4a 3d 64 aa 46 3d db 40 2a 3d
       0.03774735 0.049525604 0.04850234 0.041565757
0000d0 ba 70 2b bc c8 56 18 bd ff bc 86 bd 3b 39 82 bd
       -0.010463888 -0.037192136 -0.06579017 -0.06358572
0000e0 49 d4 db 3d 21 6a 90 bd f4 4f 4f 3d 33 57 51 bc
       0.107338496 -0.070514925 0.05061336 -0.012777138
0000f0 8e a1 c0 3d 69 e2 97 bd f9 2d 4e 3c fd 59 88 3d
       0.09405814 -0.07416231 0.012584203 0.06657789
000100 ac 44 a1 bd be d8 b8 3d 9f 5e aa bc f7 c9 31 3d
       -0.07874426 0.09025715 -0.020797072 0.0434055
000110 07 60 80 3c ce 1e 32 3d d6 f2 ee bc fc df 45 bd
       0.01567079 0.04348641 -0.029168528 -0.04830931
000120 fb 93 49 bd 7f e5 1f 3d 54 8a d2 3d fa 1d a4 bd
       -0.04921339 0.039037224 0.1028029 -0.0801353
000130 42 68 ae 3c b3 07 d5 bc 89 1f ed 3c 9c 5e d3 3d
       0.021289948 -0.026004648 0.028945701 0.1032078
000140 63 c0 a6 bc 74 47 28 bd 92 d7 c7 3d 2b 44 2f bd
       -0.020355409 -0.041083768 0.09757914 -0.04278962
000150 5f 80 5c bd 6d 70 9e 3d dd cd 1b be 4f f7 df bd
       -0.05383336 0.07736287 -0.1521525 -0.10935842
000160 1f 1a 31 bd 18 e6 67 3d bd 04 31 bd 60 b0 37 3d
       -0.0432378 0.05661592 -0.04321741 0.04484594
000170 b8 58 05 bd 4c ec c1 bd 82 a9 6e 3d 19 e6 20 3d
       -0.032555312 -0.09468898 0.058267124 0.03928194
000180 5d ec 99 bd 5a 7c 87 bd 37 15 d3 bc 21 3a 3a be
       -0.07515786 -0.06615515 -0.025766952 -0.18186237
000190 10 a8 bf bc 65 c5 8c bd 77 91 b2 3d 4d b5 52 3c
       -0.023395568 -0.068735875 0.087191515 0.012860608
0001a0 34 61 73 be 42 53 6c 3d 23 a9 51 3d 98 44 10 3d
       -0.23767549 0.05769659 0.051186692 0.035221666
0001b0 5c 92 7b bd e1 53 44 3d 4d 02 a9 bc f7 a0 40 be
       -0.061418876 0.047931556 -0.02063098 -0.18811403
0001c0 8b 7a 77 3b f9 c7 27 bd 6e 38 2b bd 7c 18 85 bd
       0.003776225 -0.040962193 -0.041801862 -0.06498811
0001d0 08 e0 e9 bb 44 8a f3 3d df bd bc 3d d7 55 e5 3c
       -0.0071373023 0.118916065 0.092159025 0.027995033
0001e0 50 f0 41 bd 8f 68 66 bd b7 7c ef 3c 9b 41 b9 bd
       -0.04734832 -0.05625206 0.029234273 -0.090457164
0001f0 22 38 2d 3d b3 79 21 bd 5a 58 97 3d 34 41 89 bd
       0.04228986 -0.039422702 0.073898986 -0.0670189
000200 87 4e a5 3d d4 2c ae 3c 77 d3 89 3c 4b 61 0a bd
       0.080716185 0.02126161 0.016824467 -0.033784192
000210 4b 14 27 3c c0 3c bc bd 2d 89 cc 3b 47 08 85 bc
       0.010197709 -0.09191275 0.0062419386 -0.016239299
000220 0a fa d3 bc 46 d2 1b be 4a 0b 85 bd c1 50 e0 3c
       -0.025876064 -0.15216932 -0.06496294 0.027382256
000230 ec 36 89 bd da 08 28 bc 41 68 ab 3c 3c 54 80 bd
       -0.06699929 -0.010256017 0.020923736 -0.062660664
000240 a7 36 1a bd 01 e5 01 be ba c3 27 bd 5a 16 1e bd
       -0.037649777 -0.12685014 -0.040958144 -0.038595535
000250 8c 2f ae 3d 02 56 32 be 79 c4 e2 3d 8c f0 7a 3d
       0.085051626 -0.17415622 0.110726304 0.06126456
000260 fe 8b 3c bd 50 49 bd 3d 8e 76 c6 3d cf bb 1e 3c
       -0.046031944 0.09242499 0.09690581 0.009688332
000270 e5 86 59 3d 53 55 0b bd 4e 65 f8 3d 29 21 1b bc
       0.05310716 -0.03401692 0.12128697 -0.009468355
000280 01 56 90 3c d2 db a0 3c 32 26 15 3b 1f 2b ad 3c
       0.017619135 0.019636068 0.0022758362 0.021138726
000290 ab 01 92 be d9 5b 02 bd b7 6c df 3d 92 a5 4d bd
       -0.28516898 -0.031825874 0.109094076 -0.05020673
0002a0 af de 68 3d f1 80 d0 3d fc 57 8d bd cf 3f ef bd
       0.056852993 0.101808436 -0.06901547 -0.116820924
0002b0 4e 26 60 3d fc dd 5c 3d fd bf 59 bb be d5 fc bd
       0.05472403 0.05392264 -0.0033226006 -0.123454556
0002c0 d3 04 a1 bd ad bc 18 3c 57 c7 a3 bc 85 51 ba 3d
       -0.07862248 0.009322328 -0.019992514 0.0909758
0002d0 e0 68 a6 3b 97 39 9a 3d cb 94 b4 bd 5c 13 4e 3d
       0.00507842 0.07530516 -0.088174425 0.05031143
0002e0 a5 3a 81 3d 84 51 1d bd f3 bf 34 bd f9 69 bf 3c
       0.06310014 -0.038407817 -0.04412837 0.023365961
0002f0 fd c7 08 be 3a c6 fd bb 0c dd e7 bd 16 16 ef bb
       -0.1335754 -0.0077445777 -0.11321458 -0.007296334
000300 ac 0b db 3b aa 56 ff bc e2 0c d2 3d 88 56 04 bc
       0.006684741 -0.031169254 0.102563635 -0.008077271
000310 7a fc 56 bd d7 90 26 bd 02 27 92 bd 86 7e 88 3d
       -0.052486874 -0.040665474 -0.071363464 0.066647574
000320 a7 e5 ef 3a 90 27 94 3d 32 d1 d2 3d 93 66 34 3d
       0.0018302695 0.072341084 0.10293807 0.044043135
000330 0b ac 02 bd 4a 0e 51 bd 0e a3 ca bc cb 37 f6 3c
       -0.031902354 -0.051039018 -0.024735954 0.030055901
000340 75 01 be 3e 3c 9e 99 3d eb b4 14 be ea df 22 bc
       0.37110487 0.07500884 -0.1452214 -0.009941081
000350 e2 fc 79 be a8 e3 c8 bc 21 ec 99 3d 21 97 0c bc
       -0.24412873 -0.024522617 0.07515741 -0.008580954
000360 de 42 5c 3d 7a b0 81 bc 32 6a 09 3e de 1f 86 3d
       0.053774707 -0.01583122 0.13419417 0.06549047
000370 bf 72 94 ba 9d fd 31 3e 6a 4b 3e be 24 b4 e9 3d
       -0.0011325701 0.17381902 -0.18583456 0.11411312
000380 a6 cd ba bd 9a 29 5e bc 1c e0 44 3e be 54 2a be
       -0.091212556 -0.013559723 0.19226116 -0.16633889
000390 e8 a3 c9 3c 95 40 70 be 69 5e 4a 3d e5 02 84 bd
       0.02461429 -0.23462136 0.049406443 -0.064458646
0003a0 24 a4 24 bd 4e 28 ac bc b5 67 c4 bd b5 3f ee bd
       -0.0401956 -0.021015313 -0.09590093 -0.11633245
0003b0 53 6b 39 bd eb d7 c3 bc 80 fb e9 bd 5c fc 24 3d
       -0.045268368 -0.023906669 -0.11424923 0.04027973
0003c0 31 ff 0e be 4c 58 81 bd ce 8b 9f 3d 35 12 16 3e
       -0.13964535 -0.063156694 0.077903375 0.14655383
0003d0 6b ad e3 3b e4 38 c4 3b e7 46 83 3c 17 c8 3e 3c
       0.0069481633 0.005988227 0.01602502 0.011644385
0003e0 33 0b 3a 3d 75 fb 50 3c c2 30 5a bd 93 8b 49 3d
       0.045420837 0.0127552645 -0.053269155 0.049205374
0003f0 11 b2 e5 bc 2d 34 02 bd 35 a2 8e 3d 6e 57 10 3d
       -0.02803901 -0.03178804 0.06964532 0.03523963

hidden_layers.0.bias f4 [128]
000000 78 8a d2 3d 88 77 27 bd bd b8 f4 3c c0 6e 92 3d
       0.10280317 -0.04088548 0.029873246 0.0715003
000010 9b cb 25 3c 81 cf c8 3d da 27 14 3e 2a 51 15 bd
       0.010119344 0.09805203 0.14468327 -0.036454357
000020 fd 97 c5 3d ce 6b 0e 3d 43 bf 46 3d ea 30 11 3d
       0.0964813 0.03477078 0.048522245 0.03544704
000030 95 7e 49 3d d7 22 f5 3d cd a3 2c bc 73 60 99 bd
       0.049192984 0.11969536 -0.0105371 -0.07489099
000040 a8 90 18 3c 29 66 a1 3b 01 d5 d8 bc 16 13 f0 3d
       0.0093118325 0.0049255085 -0.026468756 0.1172239
000050 c3 a4 01 3b 6f 59 40 3e ce f8 0f 3c 1d c7 08 3e
       0.0019782044 0.18784116 0.008787347 0.13357206
000060 4c da 2a 3d 7d b8 45 b9 b3 e1 a1 3c f2 1f 80 bd
       0.04171209 -0.00018856111 0.019760942 -0.06256093
000070 a1 06 d8 3d f5 35 dd 3d bd 04 13 3e ae 65 03 3d
       0.10548139 0.10801307 0.14357276 0.03207939
000080 54 6a df 3d 7c f2 32 3d a5 5c fc bc 97 e9 e4 bc
       0.10908952 0.043688282 -0.030805895 -0.027943416
000090 27 b6 94 bc e7 96 d7 3d 5a f7 b7 3d 7e 3e 9d 3d
       -0.018153263 0.10526829 0.089827254 0.07677935
0000a0 12 aa 9e 3b e4 e9 2f 3d cf 8b af 3d 86 52 12 3c
       0.0048420513 0.042947665 0.08571588 0.008930808
0000b0 1c 70 8e 3d 84 dc 04 3d c2 ae d5 3b 1a 3b 95 bb
       0.06954977 0.032436863 0.006521077 -0.0045541646
0000c0 05 df 65 bc af 2f 27 3c d7 07 ff 3b cb 41 87 3d
       -0.014030223 0.01020424 0.007782917 0.06604346
0000d0 fa 00 c0 3c 65 3b c6 3d 21 14 0e 3b a3 ad 82 3d
       0.023437966 0.09679297 0.0021679478 0.06380775
0000e0 ea c6 a5 3d d7 49 b2 bc b6 57 35 bd 20 ea c9 3d
       0.080945805 -0.021763725 -0.0442731 0.09859109
0000f0 b6 ae 92 bd 0f 2f 56 3d 15 e4 04 bd f6 de 57 3d
       -0.0716223 0.052290972 -0.03244408 0.052702866
000100 f3 3d a2 bc 5a 37 da bd 94 fb 5f 3d c6 c7 92 3d
       -0.01980493 -0.10655089 0.054683283 0.0716701
000110 ea d4 49 bd c4 cf 36 3c 1a 07 01 3d 06 78 a4 bd
       -0.049275316 0.011157934 0.031500913 -0.08030705
000120 b5 e9 9f bd f4 b9 21 3c 1e d6 60 3d 23 4b 83 bd
       -0.07808248 0.009870995 0.054891698 -0.064108156
000130 ca b8 30 bd 7c c6 a2 bd 18 53 3b bc 66 49 ef 3d
       -0.04314498 -0.07948014 -0.011433385 0.116839215
000140 35 0f 61 3c 65 0a 26 bd b0 65 bb bd 79 86 82 bc
       0.013736536 -0.040537257 -0.09150255 -0.015933262
000150 48 cb 2f 3c 83 70 40 3d 01 37 61 3b 95 4b e9 ba
       0.010729618 0.0469823 0.003436506 -0.0017799014
000160 9d 0b c0 bd 63 de e8 3c 6f 41 b4 bd c6 b2 ff 3d
       -0.09377215 0.028426355 -0.08801543 0.1248527
000170 3f 44 13 3e ba 48 86 bd 5a e1 68 bd 6e af cb 3c
       0.14381503 -0.0655684 -0.056855537 0.024863925
000180 08 5f 28 bd 22 a4 cb bd f0 4b 0f bd fd ec 20 3e
       -0.041106254 -0.09943415 -0.03498453 0.15715404
000190 20 a1 9f 3d da ae 9a bd 33 60 d9 3c c1 af d6 3d
       0.07794404 -0.075528815 0.02653513 0.10482741
0001a0 57 b8 83 bd 9e 21 95 3d 33 22 a6 3c a9 66 ed bc
       -0.064316444 0.072818026 0.02027998 -0.028979616
0001b0 7f 80 e3 bc df a5 c0 3d 4c f6 16 bd e0 bf 21 3e
       -0.027771233 0.094066374 -0.03685598 0.15795851
0001c0 37 6e 9a 3d 2a 8f 03 3d 74 db d1 3d 43 72 a7 bd
       0.07540553 0.032118954 0.102469355 -0.081760906
0001d0 2c 91 43 3e cd 7d ce 3d be 76 8f 3c 07 d6 da bd
       0.19098347 0.10082588 0.017512675 -0.10685354
0001e0 16 40 f9 3d 98 c8 66 bc 15 51 b9 3d e3 18 01 bb
       0.121704265 -0.014085911 0.09048668 -0.0019698672
0001f0 f4 9f 74 bd 7a f5 47 3c ae c7 a0 ba 53 17 c2 bc
       -0.059722856 0.012204522 -0.001226654 -0.023692762

output_layer.weight f4 [4, 128]
000000 1d 5c de bd 6a 7e 48 3d 00 7c ad 3d d9 3f 5a be
       -0.10857413 0.048948683 0.08470917 -0.21313418
000010 43 78 e0 3d f0 d1 b4 3d 9b a7 dd 3d fe a0 6a 3e
       0.10960438 0.08829105 0.10822984 0.22912976
000020 ae 8d 83 3d 65 ea 4b 3c 14 52 06 3e fd f1 85 bc
       0.06423508 0.012446021 0.13117248 -0.01635074
000030 99 fb 43 3c 58 73 ac 3c 39 4e 2a 3e 37 e1 77 3d
       0.011961841 0.021051094 0.16631402 0.060517516
000040 d6 0d 4e 3d 6d f2 6b 3c a9 c4 08 be 9c cc 19 3e
       0.050306164 0.0144010605 -0.1335627 0.15019459
000050 f1 fe e9 bd 45 75 5a 3c 63 44 73 bc 27 22 f3 3d
       -0.11425579 0.013333623 -0.014847848 0.118717484
000060 8c 22 e0 3d 30 0f 62 3e 2a a5 e4 3c 38 88 a1 bd
       0.10944089 0.22076106 0.027910788 -0.0788731
000070 27 21 1d 3e 29 09 d2 3d 68 f4 ef 3d 2f b3 f3 bd
       0.15344678 0.102556534 0.11716539 -0.11899411
000080 05 f1 4b 3d 8f 0b ca 3d 07 b8 dc 3d 23 06 85 bd
       0.0497904 0.09865486 0.10777288 -0.06495311
000090 e8 ad ac bd 9a da f0 3d bc 2a 0f 3e b5 3b 81 3d
       -0.084316075 0.11760445 0.13981146 0.06310216
0000a0 43 dd 5a ba 08 3d a6 3e 16 28 85 3d ea 14 2f bd
       -0.00083490106 0.32468438 0.065017864 -0.042744555
0000b0 f0 77 75 3d bf aa da bd 87 81 0f 3c 43 59 03 3e
       0.059928834 -0.106770985 0.008758909 0.1282702
0000c0 e1 a2 49 bc 1d 03 e5 3d 94 fa 16 3c 81 c5 19 3e
       -0.0123069 0.111822344 0.009215016 0.15016748
0000d0 a8 62 e7 3d 16 47 cf 3d 42 13 ab 3c 35 62 77 3d
       0.11298114 0.101209804 0.020883206 0.060396392
0000e0 51 4d a4 3d 6a 41 4c bd 13 d4 13 bd 1d 68 c9 3d
       0.080225594 -0.04986707 -0.03609092 0.09834311
0000f0 a3 3a dd bd b9 7c 21 3d a1 ed 3c bd 9d d3 57 bd
       -0.108022 0.039425585 -0.046125058 -0.052692045
000100 dc 9b 96 be 8f 06 15 3c 08 68 ca 3d 56 6f 4b bd
       -0.29415786 0.009095802 0.09883124 -0.049666725
000110 63 68 38 be 2e f6 e2 3d e8 53 9e bc 1c 0f e7 bc
       -0.1800857 0.11082111 -0.019327119 -0.028205447
000120 f2 57 21 be 56 be 42 3e d9 73 44 3e 52 62 fe 3d
       -0.15756205 0.1901792 0.19184817 0.12421097
000130 99 72 6b 3d 9b 9e 7d 3d 40 17 51 be 9b 4f bc 3d
       0.057482336 0.061918836 -0.20419025 0.09194871
000140 aa eb 13 be e2 42 b5 3d d7 a2 db bd 4e 30 78 bd
       -0.14445367 0.088506475 -0.107244186 -0.060592942
000150 47 ea 87 3e fb 1f 00 bc 9e ec 07 3e d4 e8 26 3e
       0.26545927 -0.007820125 0.13273856 0.16299754
000160 63 47 4f be 78 71 f9 3d a1 7b eb bc 78 ab 4d 3d
       -0.20242076 0.121798456 -0.028745474 0.050212353
000170 79 2c 4d 3d cc 2b 06 3d 86 df 09 3e 4d 20 d0 3e
       0.05009124 0.03275661 0.13464174 0.40649644
000180 2c ef 1b bc 33 91 c5 bd b7 40 2b 3d 9c 46 f9 3d
       -0.009517472 -0.09646835 0.041809764 0.12171671
000190 18 48 27 3c 12 b0 a5 3d ce 77 01 3e ac 09 d7 bc
       0.01021006 0.08090223 0.12643358 -0.02624973
0001a0 1a 47 09 3d 92 0f 18 3c c6 0d 9d 3d 90 af 0b be
       0.033515073 0.009281056 0.07668643 -0.1364119
0001b0 fd 91 98 bd e5 fa 99 bc a7 8d 9d 3d fc 4d b2 3d
       -0.0744972 -0.018796394 0.07693034 0.087062806
0001c0 9f 03 07 3e c8 f0 a5 3d 13 74 08 3e 09 b6 ac bc
       0.13184975 0.08102566 0.13325529 -0.021082895
0001d0 d4 b6 e0 3d 37 87 d7 3d eb f8 93 3d 06 31 b5 bd
       0.10972372 0.10523837 0.07225212 -0.08847241
0001e0 ac 75 4b 3d d8 f8 01 3a 62 37 e8 3d 9d e9 ab bc
       0.049672768 0.000495804 0.113386884 -0.020985419
0001f0 dc 7d 2c be a1 a3 84 bd 8a 4a d6 bd cd a4 93 bc
       -0.16844887 -0.06476522 -0.10463436 -0.01802292
000200 3a e4 9f 3d f7 5b 63 3d b8 3f f6 3b e3 03 21 be
       0.07807203 0.055507626 0.00751492 -0.15724139
000210 f0 9a 52 3e 8b 95 93 bc 37 62 d8 3c 8b 33 0f 3e
       0.20566916 -0.018015644 0.02641402 0.13984506
000220 bf d0 b6 3d 29 4f 94 3d 11 59 b6 3d 65 8a 16 3c
       0.08926534 0.07241661 0.08903707 0.009188269
000230 f9 2b c0 3d 34 81 3a 3d a9 24 11 3e f7 a1 af bd
       0.09383387 0.045533374 0.14174141 -0.08575814
000240 ca f2 dd 3d 52 16 a9 3d cb c8 07 3d 30 56 13 3e
       0.10837324 0.082562104 0.033150475 0.14388347
000250 1c fa 72 bd 5c 26 0a 3e d3 33 8e 3d 57 ed 80 3d
       -0.059320554 0.13491195 0.069434784 0.06295269
000260 65 61 93 bb 84 35 28 3e 5a 4a ca bd 97 94 43 bd
       -0.0044976943 0.16426665 -0.09877463 -0.04774913
000270 d7 07 2e 3e da 06 74 3d 55 b6 54 3d cb f6 0c bd
       0.16995178 0.059576847 0.051931698 -0.034415048
000280 b0 e4 8d 3d 39 f0 4e 3e 91 ac f7 3d 35 9e c0 bd
       0.06928384 0.20208825 0.12093461 -0.094051756
000290 c5 51 5f be 54 df 85 bc 07 5b e1 3d 20 56 bd 3c
       -0.21808536 -0.016341843 0.1100369 0.023112357
0002a0 8c 93 fe 3c 94 ff c3 3e df 47 fc 3d 80 c7 b7 bd
       0.031076215 0.38280928 0.12318396 -0.089735985
0002b0 84 eb ac 3b 28 ee 77 bd af e5 54 3e 54 b5 ad bc
       0.005277099 -0.060529858 0.20790742 -0.021204628
0002c0 e9 26 b9 bd 39 51 86 bd 27 a1 03 be f4 e4 fc 3d
       -0.09040625 -0.06558461 -0.12854443 0.12348357
0002d0 bb ad 3b 3d ac 10 d3 3d 1a a4 b4 3c 90 22 73 bc
       0.04581998 0.10305914 0.022050906 -0.014839783
0002e0 71 87 aa bb 2a 9d e1 bd 6b 3a 86 3d 24 cb 6e 3d
       -0.005204134 -0.11016305 0.06554111 0.0582992
0002f0 72 46 8f 3d 69 38 0b be f7 fc fb bc 3d 3d b7 3d
       0.06995858 -0.13595738 -0.030760271 0.08947227
000300 a1 63 9a bd 6d 47 40 bd 38 74 f5 bc fa 13 9b bc
       -0.07538534 -0.046943117 -0.029962644 -0.018930424
000310 d5 5d 2a bd dc b6 02 3e a1 f1 ee bc 80 d8 93 3d
       -0.04159339 0.12765068 -0.029167952 0.072190285
000320 e8 25 a3 bd 71 cb f0 3d 58 93 92 3d ee 7f 55 3e
       -0.079662144 0.11757553 0.0715701 0.20849583
000330 fc 87 70 bc 68 a6 fe 3c 7e f6 05 be 27 9e da 3d
       -0.014680859 0.031085208 -0.1308231 0.106746964
000340 f3 a7 17 bd 6a 09 7f bd 61 c8 46 be 52 9f 36 3e
       -0.037025403 -0.062264837 -0.19412376 0.17834213
000350 2d 9b a7 3e 8e f4 ff 3d 18 df 01 3e 48 df e4 ba
       0.32735577 0.12497817 0.1268276 -0.0017461563
000360 17 a8 d6 bd b8 bb e8 bb ac 0d bf bd 68 5b 9e 3d
       -0.10481279 -0.007102456 -0.093287796 0.07732278
000370 ca 16 da 3d 2a bb 73 3d f6 44 00 3e 55 e2 88 3e
       0.10648878 0.059504665 0.12526307 0.26735178
000380 7b 6e 26 bd 4b ad a8 bc 88 ba 03 be aa e4 32 3d
       -0.040632706 -0.020590445 -0.12864125 0.043675102
000390 20 8e 31 3d d5 fb d2 bd 83 34 1e 3e 3b f1 ab 3d
       0.04334843 -0.103019394 0.15449719 0.083956204
0003a0 69 0f 3c 3d 28 ff 3d 3e 28 56 4e 3d b5 cb f5 bc
       0.045913134 0.18554366 0.050375134 -0.030004362
0003b0 88 fb d0 bd fb 0e 8c 3d 6f 86 a4 3c eb bb 04 3e
       -0.10204226 0.06838795 0.020083634 0.1296231
0003c0 4e bd 8f 3d 8f 59 96 3d 7f fe 92 3d 90 c5 be 3c
       0.07018529 0.07341301 0.071774475 0.023287565
0003d0 b6 bd 03 3e b6 41 e2 3d 6e fb 61 3d 80 ed 0f 3d
       0.12865338 0.110476896 0.055171423 0.035138607
0003e0 a7 6f d3 3d cf 53 26 bd 52 a5 bf 3d f6 c8 a5 bd
       0.1032403 -0.04060727 0.09357704 -0.08094971
0003f0 62 b2 9a 3c 96 ed 84 bc dc 5c 89 be a8 a2 03 be
       0.018883888 -0.016226571 -0.2682866 -0.12855017

output_layer.bias f4 [4]
000000 d3 68 2d 3d a1 d5 cd 3c 12 96 de 3d 52 34 de 3d
       0.042336296 0.02512628 0.108684674 0.10849823
