results/navigation/run/trials/default/seed_22/checkpoints/model.0.tar (torch, 89495 bytes, 6 tensors)

input_layer.weight f4 [128, 37]
0	0x3d106f48	0.035262376
1	0x3e096cb1	0.13420369
2	0x3e1605d9	0.14650668
3	0x3db18402	0.086677566
4	0x3b6f8680	0.0036548674
5	0x3e1ff9f5	0.15622695
6	0x3d0da794	0.034583643
7	0xbda9edd7	-0.082973175
8	0xbda4b34e	-0.08042012
9	0x3de52e46	0.111904666
10	0xbe13ec62	-0.14445642
11	0x3c4ceb20	0.01250723
12	0xbddc71ee	-0.10763918
13	0x3e190a2d	0.14945288
14	0x3de35a7e	0.111012444
15	0x3c229630	0.009923503
16	0x3e13bedf	0.1442828
17	0x3d7df404	0.06200029
18	0x3e1db119	0.15399589
19	0xbdba98a7	-0.091111474
20	0x3daac22e	0.08337818
21	0xbe1c781a	-0.1528019
22	0xbdf69849	-0.12040765
23	0x3d5866f8	0.052832574
24	0xbcf2e368	-0.029649451
25	0xbdcc87ea	-0.09986861
26	0xbdb62164	-0.088930875
27	0x3c1acbd0	0.009448007
28	0xbd271786	-0.040793918
29	0x3e0d1a8d	0.1377966
30	0xbb2c5680	-0.0026296675
31	0xbd1fe318	-0.039034933
32	0xbcaab488	-0.020838037
33	0xbcbb7210	-0.022881538
34	0xbd858151	-0.06518806
35	0x3e21c399	0.15797271
36	0x3de65682	0.11246969
37	0x3d623d80	0.055234432
38	0xbdfecfb2	-0.124419585
39	0x3e17621d	0.14783521
40	0x3d5cc4e0	0.053898692
41	0xbe209f38	-0.15685737
42	0xbc1132a0	-0.008862168
43	0x3e1d5b73	0.15366916
44	0xbdba1bc5	-0.09087328
45	0x3a96bc80	0.0011500269
46	0x3dd58aca	0.104268625
47	0xbd82ae79	-0.06380934
48	0xbca99628	-0.020701483
49	0xbd02fc84	-0.0319791
50	0x3dd35cce	0.103204355
51	0x3aef8200	0.0018272996
52	0x3e04c545	0.12965877
53	0xbe0d01ca	-0.13770214
54	0x3dc0efba	0.09420724
55	0xbd2a18ea	-0.041527666
56	0xbd7ecb16	-0.062205397
57	0xbd9a7a91	-0.07542909
58	0xbd81d131	-0.06338728
59	0xbd29c82c	-0.041450664
60	0xbe212612	-0.15737179
61	0x3e1fe95d	0.15616365
62	0x3da338c2	0.0796981
63	0xbd94e9f7	-0.07271188
64	0x3df01102	0.11721994
65	0x3e1f787f	0.1557331
66	0x3e0e6be9	0.13908352
67	0x3d3cccb8	0.046093673
68	0xbd614e0c	-0.055006072
69	0x3d3868a0	0.045021653
70	0x3e2034af	0.15645097
71	0x3d8ba6a6	0.06818895
72	0xbc0ece90	-0.0087162405
73	0x3dec301a	0.11532612
74	0xbd6b0edc	-0.057387218
75	0xbe261a97	-0.1622108
76	0x3d08de94	0.033415392
77	0xbc283bb0	-0.010268137
78	0xbdb0bf88	-0.08630282
79	0xba442700	-0.0007482618
80	0xbe0d9728	-0.13827193
81	0xbdd4c64c	-0.103893846
82	0xbde020aa	-0.1094373
83	0x3d34e298	0.04416141
84	0x3dbabfce	0.09118615
85	0xbe06b2e3	-0.13154177
86	0x3dfcb9fe	0.12340163
87	0xbd704262	-0.058657058
88	0x3caab478	0.020838007
89	0x3d92f2e6	0.071752355
90	0xbd0c13b8	-0.034198493
91	0x3dcb3d36	0.099237844
92	0xbb9ed860	-0.0048475713
93	0x3c3ff7a0	0.011716753
94	0x39848200	0.0002527386
95	0x3ca5cc88	0.02023913
96	0x3d28458c	0.04108195
97	0xbe19273a	-0.1495637
98	0xbc87a268	-0.016556934
99	0xbe09d516	-0.13460192
100	0x3e037df3	0.12841015
101	0x3caa2958	0.020771667
102	0xbdebe633	-0.115185164
103	0x3d78dfb8	0.06076023
104	0x3d7ac310	0.061221182
105	0xbe0cc679	-0.13747586
106	0x3e1d99a7	0.15390645
107	0x3b7e0200	0.0038758516
108	0x3deb0592	0.11475672
109	0x3d64b094	0.05583246
110	0xbd582476	-0.052769147
111	0x3e212019	0.157349
112	0x3ca12fa8	0.019676045
113	0xbcdcea70	-0.026967257
114	0xbdbd238d	-0.092352964
115	0x3c2123c0	0.009835184
116	0x3e0c782f	0.13717721
117	0xbd9738c9	-0.07383878
118	0xbdeb5694	-0.11491123
119	0xbda7798a	-0.081774786
120	0xbdd46456	-0.103707
121	0x3e27d953	0.16391496
122	0x3daf1eda	0.08550806
123	0xbd9b850c	-0.07593736
124	0xbcd9c018	-0.026580855
125	0xbc3c31b0	-0.011486456
126	0x3e13715f	0.14398716
127	0xbe11b9c2	-0.14231017
128	0x3d61ec9c	0.05515729
129	0xbddaea96	-0.10689275
130	0x3de96b76	0.1139745
131	0x3d6dad50	0.05802661
132	0xbdfb2579	-0.12263007
133	0xbe011419	-0.12605323
134	0x3aa8a700	0.0012867153
135	0x3e1f851f	0.15578125
136	0xbe1e57ac	-0.15463132
137	0xbdf1a898	-0.11799735
138	0xbe0bcdfd	-0.13652797
139	0x3c95d198	0.018288419
140	0xbe137ab8	-0.14402282
141	0x3da646aa	0.08118947
142	0xbe0db8f6	-0.13840088
143	0xbcbf3060	-0.023338497
144	0x3d364f88	0.04450944
145	0x3c1f7ed0	0.009734824
146	0xbca05e60	-0.019576252
147	0x3bfb8800	0.0076761246
148	0xbe24c48d	-0.16090603
149	0x3d671c8c	0.05642371
150	0x3d5bd44c	0.05366926
151	0x3dac731c	0.08420393
152	0x3decd1b2	0.11563434
153	0xbe276c17	-0.16349827
154	0x3d426208	0.04745677
155	0x3d1e0230	0.038576305
156	0xbe09d0ea	-0.134586
157	0xbdc4e422	-0.096138254
158	0x3e17aacd	0.14811249
159	0x3d0039f4	0.03130527
160	0xbc315a40	-0.01082474
161	0xbcdd9cb8	-0.027052268
162	0xbd1cf8a4	-0.03832306
163	0x3e23a8cb	0.15982358
164	0x3d4b6880	0.049660206
165	0x3e1482e9	0.14503063
166	0xbe1da618	-0.15395391
167	0xbd9255bb	-0.07145258
168	0xbced4bf0	-0.028966874
169	0x3dd6fc76	0.10497372
170	0x3da4851c	0.08033201
171	0xba1f6c00	-0.0006081462
172	0x3dc573fe	0.096412644
173	0xbcc29130	-0.023750871
174	0x3e07936b	0.13239829
175	0x3d9f5356	0.07779567
176	0xbca3c758	-0.019992515
177	0xbdf3c830	-0.11903417
178	0x3e16778d	0.14694043
179	0x3db202ee	0.08691965
180	0xbcfafe88	-0.030638948
181	0x3e15d477	0.1463183
182	0xbd5fdb00	-0.054652214
183	0x3e14d717	0.14535175
184	0x3d7ef830	0.06224841
185	0x3d762c80	0.060101032
186	0xbde29204	-0.110630065
187	0xbd304f30	-0.04304427
188	0xbe24943e	-0.16072175
189	0x3e00efe5	0.12591513
190	0xbcfa6c48	-0.03056921
191	0xbe1ed289	-0.1551
192	0xbd2f6e9e	-0.042830102
193	0xbac0de80	-0.0014714748
194	0xbe06a83a	-0.13150111
195	0x3dfc8516	0.12330072
196	0x3e12eb03	0.14347462
197	0xbd97618e	-0.07391654
198	0x3dd7cb5a	0.10536833
199	0x3cdcf968	0.026974395
200	0xbcf4d258	-0.029885456
201	0xbde97f36	-0.11401217
202	0x3dbf5c92	0.09343828
203	0x3c0ad740	0.008474171
204	0x3d7d211c	0.061799154
205	0xbe1cd6d8	-0.15316331
206	0x3db64caa	0.08901341
207	0xbe18b89f	-0.14914177
208	0x3e094567	0.13405381
209	0xbe00767f	-0.12545203
210	0xbc0d7ec0	-0.008636177
211	0xbb180f80	-0.0023202598
212	0xbb8be7c0	-0.00426957
213	0xbe0c8e22	-0.13726094
214	0x3d49defc	0.04928492
215	0xbe14d705	-0.14535148
216	0xbd1bae6c	-0.03800814
217	0x3cd38528	0.02582033
218	0x3dad7866	0.0847023
219	0xbde1b070	-0.11019981
220	0xbd28c326	-0.041201733
221	0xbdc40af3	-0.09572401
222	0x3d88750a	0.066629484
223	0xbd7ab4ee	-0.061207704
224	0xbdfc32ef	-0.12314402
225	0x3d056ee0	0.03257644
226	0x3db4acde	0.08822034
227	0x3d857222	0.0651591
228	0xbd03262c	-0.032018825
229	0x3e1c95b7	0.15291487
230	0xbe125983	-0.14291959
231	0xbe0f8276	-0.1401461
232	0x3d2b3ca0	0.041805863
233	0x3e1da947	0.15396605
234	0x3dd85166	0.105624005
235	0xbd9eef91	-0.077605374
236	0x3cb23478	0.021753535
237	0x3dd54caa	0.10415013
238	0xbe172b48	-0.14762604
239	0x3ddabbca	0.10680349
240	0x3dd55786	0.104170844
241	0x3e1ae299	0.15125503
242	0xbda41a50	-0.08012831
243	0x3dcc11b2	0.099643126
244	0xbdecdf14	-0.11565986
245	0xbd92bf85	-0.07165436
246	0x3e1d2a47	0.15348159
247	0xbddab232	-0.10678519
248	0xbd0cbc48	-0.034359246
249	0x3e0084bf	0.12550639
250	0x3dfb3416	0.12265794
251	0xbdc6e8aa	-0.09712346
252	0xbd715ba2	-0.05892528
253	0x3cdbc460	0.026827037
254	0xbdb4553d	-0.088053204
255	0x3c9b7548	0.018976822

input_layer.bias f4 [128]
0	0xbdacb3aa	-0.08432706
1	0xbe07c464	-0.13258511
2	0xbcc41ed8	-0.023940489
3	0x3ddc953e	0.10770653
4	0x3e1b431d	0.1516232
5	0x3dc52faa	0.09628232
6	0xbdf09462	-0.11747052
7	0xbd557212	-0.05211074
8	0xbdba7385	-0.09104065
9	0xbe0894e0	-0.13338041
10	0x3dd84346	0.105597064
11	0xbda12d37	-0.07869952
12	0x3d87898c	0.06618032
13	0x3e0e530d	0.13898869
14	0xbdd40194	-0.103518635
15	0x3ceb3ef0	0.028716534
16	0x3db17d4e	0.08666478
17	0x3d81bdbc	0.06335017
18	0x3dda8606	0.10670094
19	0x3dcde40e	0.100532636
20	0xbe0e8818	-0.13919103
21	0xbde66dfc	-0.112514466
22	0xbdb02df0	-0.08602512
23	0xbd2a2e2a	-0.04154793
24	0xbde1f682	-0.11033346
25	0xbda8fa19	-0.08250827
26	0xbd9d3dec	-0.07677826
27	0x3e0e89af	0.1391971
28	0x3da2b518	0.07944697
29	0x3d4e1a3c	0.050317988
30	0xbd24f28a	-0.040270366
31	0x3dfec996	0.12440793
32	0x3df3c896	0.11903493
33	0xbddc8bfe	-0.10768889
34	0x3c027210	0.007961765
35	0xbe2023f9	-0.15638722
36	0x3b641d40	0.0034807473
37	0x3d372fe8	0.04472342
38	0xbc8fa3e0	-0.017534196
39	0x3dccfbd6	0.100089714
40	0x3dff0c62	0.12453534
41	0xbe0084a4	-0.12550598
42	0xbdc530f8	-0.09628481
43	0x3de8630a	0.11347015
44	0x3cd44690	0.025912553
45	0x3d5980a8	0.05310121
46	0xbe1de826	-0.15420589
47	0xbd8dbbfc	-0.06920621
48	0x3d39f228	0.045396954
49	0xbcb499a0	-0.02204591
50	0x3caf0028	0.02136238
51	0x3d123358	0.035693496
52	0xbda91d94	-0.08257595
53	0xbe19d657	-0.1502317
54	0x3e0dd73f	0.13851641
55	0xbe0cfe59	-0.13768901
56	0x3dc9e322	0.09857775
57	0x3e1073c9	0.14106669
58	0xbd266aee	-0.04062932
59	0x3e15ea5d	0.14640184
60	0xbe260783	-0.16213803
61	0x3bc2c000	0.0059432983
62	0x3bb58bc0	0.005540341
63	0xbe24fc23	-0.16111808
64	0x3d8b6a04	0.0680733
65	0xbd280046	-0.041015886
66	0x3dac74ac	0.08420691
67	0xbc715050	-0.014728621
68	0x3e22a5a5	0.15883501
69	0xbb03d280	-0.0020114481
70	0xbe084cb5	-0.13310511
71	0xbc9906e8	-0.018680051
72	0x3d317e30	0.043333232
73	0xbe1a31fd	-0.15058132
74	0x3cb58cc8	0.022161856
75	0x3d3f4f60	0.046706557
76	0xbdcc21c3	-0.09967377
77	0xbdf491ae	-0.11941849
78	0xbdd3e24b	-0.10345896
79	0x3c52cca0	0.012866169
80	0xbdb5a012	-0.088684216
81	0xbe05b4c3	-0.13057236
82	0xbd87b688	-0.06626612
83	0xbcbeaa60	-0.0232746
84	0xbd3b44ac	-0.045719787
85	0xbd9adb0a	-0.0756131
86	0xbc96bfe0	-0.01840204
87	0xbdace9c6	-0.08443026
88	0xbd8632d3	-0.06552663
89	0x3e1b75c9	0.1518165
90	0x3d23e3c4	0.040012136
91	0x3da19ac2	0.07890846
92	0x3db692fe	0.08914755
93	0xbd7c268a	-0.06156019
94	0xbe06481a	-0.13113442
95	0x3d843de4	0.06457117
96	0xbd905651	-0.070477135
97	0x3d42f87c	0.047600254
98	0x3ded32c6	0.1158195
99	0xbb3afac0	-0.0028530806
100	0x3da06ee8	0.07833654
101	0xbdc2676d	-0.09492383
102	0x3b41c680	0.0029567778
103	0x3d83d878	0.064377725
104	0xbe09ad89	-0.13445105
105	0x3dcda946	0.10042052
106	0xbcf8c070	-0.030365199
107	0xbd12ab90	-0.035808146
108	0xbded41ef	-0.115848415
109	0xbd10bdec	-0.035337374
110	0xbd39c672	-0.045355268
111	0xbd77ae14	-0.06046875
112	0x3d2a9c64	0.041653052
113	0x3d5945b0	0.053044975
114	0xbdacd5d9	-0.08439226
115	0x3d8343cc	0.064094156
116	0x3e0dc09d	0.13843007
117	0x3dc3adce	0.09554635
118	0xbe01abce	-0.12663195
119	0x3e1c37e7	0.152557
120	0xbd644ebc	-0.05573915
121	0x3e15fc45	0.14647014
122	0xbe10284e	-0.14077875
123	0x3daa8cf6	0.083276674
124	0x3d74b898	0.059746355
125	0x3d8826c0	0.06648016
126	0x3d44e5ac	0.048070595
127	0x3e08eb7d	0.13371082

hidden_layers.0.weight f4 [128, 128]
0	0xbd9a0192	-0.07519831
1	0xbdadfd68	-0.08495599
2	0xbcfa6932	-0.03056774
3	0xbd6e5d45	-0.058194418
4	0x3d8adb25	0.0678008
5	0x3c22ebc0	0.0099439025
6	0xbcfeff26	-0.031127524
7	0x3ca74394	0.020417966
8	0xbc6cbc90	-0.014449254
9	0xbc942108	-0.018082157
10	0x3d9400d5	0.07226721
11	0xbd333cd8	-0.043759197
12	0xbd56c1f3	-0.05243106
13	0xbd740806	-0.059577964
14	0xbcb9cbd4	-0.0226802
15	0xbc958ebc	-0.018256538
16	0x3c3a0c40	0.01135546
17	0xbcae853c	-0.021303765
18	0x3d9baa69	0.076008625
19	0xbda982e2	-0.08276917
20	0x3d2d3322	0.042285092
21	0x3ccd9058	0.025093243
22	0x3d122f56	0.035689674
23	0xbd942576	-0.072337076
24	0xbd9913f9	-0.074745126
25	0xbc5e6c18	-0.013575576
26	0xbda71a53	-0.08159318
27	0xbd990a2f	-0.074726455
28	0xbd88dc3e	-0.06682633
29	0xbd53e911	-0.05173594
30	0x3daf676d	0.08564649
31	0x3c7f7180	0.015591025
32	0x3cae4214	0.021271743
33	0x3d922df9	0.07137675
34	0x3d85632f	0.065130584
35	0xbd3bcb32	-0.04584808
36	0x3d33d71a	0.04390631
37	0xbbac67f0	-0.0052614138
38	0xbc3194a8	-0.010838665
39	0x3ca102b0	0.019654602
40	0x3cf8b38c	0.030359052
41	0xbd99c476	-0.07508175
42	0x3d833665	0.06406859
43	0x3d42373e	0.047415964
44	0x3d108818	0.03528604
45	0x3d1f124a	0.0388358
46	0xbc45e4f0	-0.012078509
47	0x3d1ca33e	0.038241617
48	0x3c33b1a0	0.010967642
49	0x3c690bf8	0.014224045
50	0x3d27a8d6	0.0409325
51	0x3d9365a5	0.071971215
52	0xbc84ef3c	-0.016227357
53	0x3d370d5e	0.044690482
54	0xbd4b1b6b	-0.049586695
55	0xbd711dca	-0.0588663
56	0x3db378cf	0.08763277
57	0xbdb24f50	-0.08706534
58	0x3ba3e130	0.0050012097
59	0xbd120654	-0.035650566
60	0x3daf5c65	0.08562545
61	0xbd63b354	-0.055590943
62	0x3c96ce94	0.018409051
63	0x3d55a68a	0.052160777
64	0xbc2a3090	-0.010387555
65	0x3d8d812d	0.06909404
66	0xbc97151c	-0.018442683
67	0x3d66d406	0.056354545
68	0x3b92d4d0	0.0044809356
69	0x3cddb60c	0.027064346
70	0xbd88f532	-0.06687392
71	0xbd837d02	-0.06420328
72	0xbd173fd7	-0.036926117
73	0x3d57a48e	0.052647166
74	0x3d8a13ad	0.06742034
75	0xbd82e788	-0.06391817
76	0xbcbdce70	-0.023169726
77	0xbd13440d	-0.03595357
78	0xbc9cd2a8	-0.019143417
79	0x3d8511e9	0.06497557
80	0xbca14654	-0.019686855
81	0xbc869ed8	-0.016433164
82	0x3da30757	0.07960384
83	0xbd069ca1	-0.032864217
84	0xbda9c6ff	-0.082899086
85	0x3d9e8efd	0.077421166
86	0x3cd2b6c0	0.025721908
87	0xbd9f45a0	-0.07776952
88	0xbd794fa8	-0.06086698
89	0x3d265e46	0.04061725
90	0xbd2ff694	-0.042959765
91	0x3caccd10	0.021093875
92	0x3c7aae30	0.015300319
93	0xbd968841	-0.07350207
94	0x3d3a8d9a	0.045545198
95	0xbc24cfc8	-0.010059305
96	0xbd89c9c4	-0.06727937
97	0xbcee6e7a	-0.029105414
98	0xbd4d2f9d	-0.050094236
99	0xbcd77122	-0.026299063
100	0x3cf810e4	0.030281492
101	0xbd61db7b	-0.055140954
102	0x3da7475b	0.08167907
103	0x3cf09538	0.029368028
104	0xbca72d3c	-0.020407312
105	0x3d2eb9e6	0.042657755
106	0x3d94a5bd	0.072581746
107	0x3d325fe2	0.043548472
108	0x3c58c800	0.0132312775
109	0x3c93e180	0.018051863
110	0xb97a1000	-0.00023847818
111	0xbc93c070	-0.018036097
112	0x3c70eb58	0.014704548
113	0xbd9a5e18	-0.07537478
114	0xbd53ff05	-0.051756877
115	0xbd8ce33c	-0.06879279
116	0xbc87a0c8	-0.016556159
117	0x3d594302	0.05304242
118	0x3d870ce3	0.06594255
119	0x3d90cec9	0.07070691
120	0xbd9c18c6	-0.07621913
121	0xbd84f5bd	-0.06492183
122	0x3d3ee89e	0.04660856
123	0xbda8757e	-0.08225535
124	0x3d3f62fa	0.04672525
125	0xbd959821	-0.07304407
126	0x3d741f32	0.059600063
127	0xbdaab2ca	-0.083348826
128	0x3d6e7c2e	0.058223896
129	0x3ced78d8	0.028988287
130	0x3d131520	0.03590882
131	0xbd12a26e	-0.035799436
132	0xbc3b1180	-0.011417747
133	0xbd95dfb8	-0.073180616
134	0x3d43307e	0.047653668
135	0xbd9089ae	-0.0705751
136	0xbd198885	-0.03748371
137	0x3c22bb48	0.009932347
138	0x3c923a2c	0.017850004
139	0x3d33bbd2	0.04388029
140	0xbcf48396	-0.029847901
141	0xbd19a2a6	-0.03750863
142	0x3c80fa94	0.015744485
143	0x3ca08c40	0.019598126
144	0xbc80fe14	-0.015746154
145	0xbd086935	-0.03330346
146	0xbd8688e1	-0.06569076
147	0xbcba2e88	-0.022727266
148	0x3d37e7c2	0.044898756
149	0xbd760778	-0.060065717
150	0x3d6621ce	0.056184582
151	0x3d608eea	0.054823793
152	0x3d06e846	0.032936357
153	0xbd1f0e8b	-0.03883223
154	0x3d076742	0.03305746
155	0x3c420858	0.01184281
156	0x3cca5458	0.024698421
157	0x3d30841e	0.043094747
158	0x3da3e049	0.080017634
159	0xbb21f800	-0.002471447
160	0xbb94ab40	-0.004537016
161	0x3c992194	0.01869277
162	0x3b1a8560	0.0023578033
163	0x3cbdc944	0.02316726
164	0xbd404828	-0.046943814
165	0xbca5f3ec	-0.020257913
166	0x3cc6d694	0.02427224
167	0xbd936d7a	-0.07198615
168	0x3d949f57	0.07256954
169	0x3d850cc7	0.06496578
170	0xbd7ffd96	-0.062497698
171	0xbd9a4958	-0.075335205
172	0x3d848a35	0.064716734
173	0x3d869f9b	0.06573411
174	0xbd51cac2	-0.051218756
175	0xbdada272	-0.084782496
176	0x3add11c0	0.0016866252
177	0x3c213368	0.009838916
178	0xbd1ff282	-0.039049633
179	0xbcda3192	-0.026634965
180	0x3d2d6e5e	0.042341582
181	0x3d2277b2	0.03966493
182	0xbd8edd9e	-0.06975864
183	0x3c006c30	0.007838294
184	0x3dae9793	0.08525004
185	0xbd4149ff	-0.04718971
186	0xbcd3b8e4	-0.025844999
187	0x3c1e8468	0.009675123
188	0xbd5e7741	-0.05431295
189	0xbcf7fbac	-0.030271374
190	0xbda68048	-0.081299365
191	0x3c5273b0	0.012844965
192	0xbbf27df0	-0.007400267
193	0xbc634598	-0.013871573
194	0x3db067e9	0.08613569
195	0xbc63c448	-0.013901778
196	0xbd57fb3e	-0.052729838
197	0xbd324bb0	-0.043529212
198	0xbc4503d8	-0.012024842
199	0x3d85c757	0.06532162
200	0xbd6a16b1	-0.057150546
201	0x3d5d35fa	0.054006554
202	0x3d085a9c	0.033289537
203	0xbd190855	-0.03736146
204	0xbcb12584	-0.021624334
205	0x3c7e2d78	0.01551377
206	0xbd02b1aa	-0.031907715
207	0x3d4b8d66	0.049695395
208	0x3d686892	0.05674035
209	0x3db14933	0.0865654
210	0xbdaf29f9	-0.085529275
211	0xbcb3c7b4	-0.021945812
212	0xbd849c1a	-0.064750865
213	0xbd3751f5	-0.044755895
214	0x3cd01790	0.02540186
215	0xbb8f84a0	-0.004379824
216	0x3d874915	0.06605736
217	0x3ba400c0	0.005004972
218	0x3be88b90	0.0070967153
219	0x3d8bf697	0.06834143
220	0xba530880	-0.0008050278
221	0xba394880	-0.0007067993
222	0xbd6b514c	-0.057450578
223	0x3da6ad63	0.0813854
224	0xbdae5b14	-0.085134655
225	0x3d1e379e	0.03862726
226	0x3d540256	0.05176004
227	0xbda957cd	-0.082687
228	0x3b5a4520	0.0033305362
229	0xbdaa152f	-0.08304822
230	0x3d410076	0.04711958
231	0xbcc5e700	-0.024158001
232	0xbd7a58bc	-0.06111978
233	0xba99c180	-0.0011730641
234	0xbd9c587c	-0.076340646
235	0xbdad1e4f	-0.084530465
236	0xbd144192	-0.036195345
237	0x3cf0fef4	0.029418446
238	0xbd34fa4a	-0.044184007
239	0x3d8b3757	0.067976646
240	0xbda84aaf	-0.0821737
241	0xbd511001	-0.051040653
242	0x3daefce7	0.08544331
243	0x3daf7963	0.085680746
244	0xbc398678	-0.011323564
245	0x3b707220	0.0036689118
246	0x3bbca340	0.0057567656
247	0xbccacbc8	-0.024755374
248	0xbb0afc00	-0.0021207333
249	0x3c8a4fb4	0.016883709
250	0xbd7352ce	-0.05940514
251	0xbd8709b0	-0.065936446
252	0xbd962483	-0.07331183
253	0xbb6438e0	-0.003482394
254	0x3d8f3c91	0.06993974
255	0x3c887c94	0.016660966

hidden_layers.0.bias f4 [128]
0	0x3d9a1cbd	0.07525013
1	0xbd36eb2a	-0.044657864
2	0x3c4957c8	0.012288995
3	0x3db27419	0.0871355
4	0x3cd227f4	0.025653817
5	0x3d9eee53	0.077603005
6	0x3d7ce7fe	0.061744682
7	0xbd44edd1	-0.048078362
8	0xbbf2c3a0	-0.007408574
9	0x3c87bee4	0.016570516
10	0xbd68bc76	-0.056820355
11	0x3c2e97b8	0.01065629
12	0xbd367171	-0.04454178
13	0x3dabdd47	0.08391815
14	0xbbe50cd0	-0.0069900528
15	0xbd8ce62e	-0.06879841
16	0xbda00bf4	-0.0781478
17	0xbca23440	-0.019800305
18	0xbd145156	-0.03621038
19	0xbc1e8dc8	-0.009677358
20	0x3d1b070e	0.037848525
21	0x3dad847d	0.08472536
22	0x3a451380	0.00075178593
23	0x3c910108	0.017700687
24	0x3b4f8580	0.0031665266
25	0xbd861c41	-0.06548358
26	0x3ce8505c	0.02835863
27	0xbcda2658	-0.026629612
28	0xbca453f8	-0.02005957
29	0x3ca75c38	0.020429716
30	0x3db12ed3	0.08651509
31	0x3d8564f9	0.065134
32	0xbb236d60	-0.0024937019
33	0x3d1dcbbe	0.03852438
34	0xbd354ce3	-0.044262778
35	0xbb390ec0	-0.0028237551
36	0xbb2956c0	-0.002583906
37	0x3c9ada20	0.018902838
38	0xbc343d88	-0.011000998
39	0xbae30f40	-0.001732327
40	0xbd2a58f1	-0.041588727
41	0x3ce765b0	0.02824673
42	0x3da5bb2b	0.0809234
43	0x3d4c9bde	0.049953334
44	0x3c5b52b8	0.013386421
45	0x3d628646	0.055303834
46	0x3c155de8	0.009116627
47	0x3c5724f0	0.013131365
48	0x3c3fd1b0	0.011707708
49	0x3c11a130	0.008888528
50	0x3cdcdcd4	0.026960768
51	0x3cb2bc64	0.021818347
52	0xbda6b00e	-0.081390485
53	0x3b0c7900	0.0021434426
54	0xbdb06d35	-0.086145796
55	0x3d572c2a	0.052532353
56	0x3d943129	0.07235939
57	0x3c483d00	0.012221575
58	0xbd8dfe5a	-0.06933279
59	0x3da48fef	0.08035266
60	0xbd9724c7	-0.073800616
61	0x3d653d2e	0.05596655
62	0xbcb46b10	-0.022023708
63	0x3d35af96	0.044356905
64	0x3be6d640	0.0070445836
65	0xbdaaecdc	-0.083459586
66	0x3d4e016e	0.050294332
67	0x3dae2527	0.0850318
68	0xbcc3be40	-0.02389443
69	0xbd81daf2	-0.06340589
70	0x3d1618a6	0.0366446
71	0xbd97b4ef	-0.07407557
72	0xbd7eb360	-0.062182784
73	0x3c105f88	0.008811839
74	0x3d123c68	0.03570214
75	0xbda1d360	-0.07901645
76	0xbd562e27	-0.052290108
77	0xbd9d5425	-0.07682065
78	0x3b994f50	0.0046786442
79	0x3d71153a	0.058858134
80	0x3d47c762	0.04877413
81	0xbd24e66b	-0.040258806
82	0xbd8d111e	-0.068880305
83	0xbceda26e	-0.029008117
84	0x3c6cc9c0	0.014452398
85	0xbce86f74	-0.028373457
86	0xbd0569eb	-0.032571714
87	0x3c346db0	0.01101248
88	0xbd83285c	-0.06404182
89	0x3d2a7c92	0.041622706
90	0xbd6574aa	-0.056019463
91	0x3bfd39f0	0.007727854
92	0x3cc93a04	0.024563797
93	0xbd8648ba	-0.0655684
94	0xbda0d3cd	-0.07852898
95	0x3c9d3d50	0.019194275
96	0xbd78489a	-0.060616113
97	0xbda74808	-0.08168036
98	0xbc557038	-0.013027243
99	0x3d8f3d33	0.06994095
100	0xbc55fa30	-0.013060138
101	0xbd77f6e6	-0.060538195
102	0xbb4dd8c0	-0.003140971
103	0x3d8ae399	0.06781692
104	0xbd95de8f	-0.0731784
105	0x3d94ed75	0.07271854
106	0xbbc69af0	-0.0060609505
107	0xbd134f60	-0.03596437
108	0xbca599a4	-0.020214863
109	0x3cea40e8	0.028595403
110	0xbd005e5b	-0.031339984
111	0x3d6e780a	0.058219947
112	0xbd1dfb75	-0.038569886
113	0xbd3b80f3	-0.045777272
114	0x3ce99c14	0.028516807
115	0xbd9c9e00	-0.076473236
116	0x3dac1f57	0.08404415
117	0x3bd66d80	0.006543815
118	0xbdae1f36	-0.08502047
119	0xbdaac0b6	-0.08337538
120	0x3c4dedd8	0.012568913
121	0xbc4b76f0	-0.012418494
122	0x3d2670ee	0.040635042
123	0x3ce6d274	0.028176524
124	0xbd268eb7	-0.040663447
125	0x3c73c288	0.014877923
126	0xbb04d2a0	-0.0020267144
127	0xbc78cc48	-0.015185423

output_layer.weight f4 [4, 128]
0	0xbd91b5f3	-0.07114782
1	0x3cd13a70	0.02554056
2	0x3c8d4fe4	0.017250009
3	0xbd3cca10	-0.04609114
4	0xbcc78088	-0.02435328
5	0x3d544532	0.051823802
6	0x3d6c6c8a	0.0577207
7	0x3d5aa602	0.053380974
8	0x3c8819c4	0.016613849
9	0xbc926538	-0.01787053
10	0x3d8ee141	0.069765575
11	0xbd901657	-0.07035511
12	0xbd156f76	-0.03648325
13	0xbc5f4c28	-0.013628997
14	0xbd2d73dd	-0.042346824
15	0x3c247368	0.010037281
16	0xbc8ccfec	-0.017188989
17	0xbd8162df	-0.06317686
18	0xbd90056a	-0.07032283
19	0x3d6c2676	0.057653867
20	0xbdb088d6	-0.086198494
21	0xbd2ffdd4	-0.04296668
22	0xbd7fd287	-0.062456634
23	0x3d69cf1a	0.057082273
24	0x3da3348d	0.07969008
25	0x3d53e5ae	0.05173271
26	0x3d027ce2	0.03185738
27	0xbd848767	-0.064711384
28	0x3d91c2e7	0.07117253
29	0x3cd7cb40	0.026342034
30	0x3d7c997e	0.06166982
31	0xbda8b7fb	-0.082382165
32	0x3c00dbf0	0.007864937
33	0x3d27f1fa	0.04100225
34	0x3c0a7d18	0.008452676
35	0x3cba8e10	0.022772819
36	0x3cf4ac40	0.029867291
37	0x3d9b3c6f	0.07579886
38	0x3da9896d	0.08278165
39	0x3c683108	0.014171846
40	0xbcd4e086	-0.025985967
41	0x3d3dff6a	0.04638616
42	0xbc58ff50	-0.013244465
43	0xbcc363f0	-0.023851365
44	0x3d1f0156	0.038819633
45	0xbc9b2cd0	-0.018942267
46	0xbd2e749f	-0.042591687
47	0x3b95eac0	0.0045751035
48	0x3d22079a	0.03955803
49	0x3d7d3306	0.061816238
50	0xba9dab00	-0.0012029111
51	0x3d97aedf	0.07406401
52	0x3d9344cb	0.071908556
53	0x3d357e96	0.044310175
54	0xba682780	-0.00088559836
55	0x3c89cd24	0.016821451
56	0x3d06053a	0.03271983
57	0xbb01ffc0	-0.0019836277
58	0xbdb158a8	-0.08659488
59	0x3cbf9394	0.0233858
60	0xbd8d2d00	-0.06893349
61	0x3c36edd0	0.011165097
62	0xbc02cba0	-0.007983118
63	0xbd87a8ba	-0.06623979
64	0xbd649847	-0.055809285
65	0xbd27f6b3	-0.041006755
66	0x3d9664b5	0.07343427
67	0xbd95931c	-0.073034495
68	0xbdb3184e	-0.0874487
69	0x3d94dded	0.072688915
70	0xbc89a788	-0.016803518
71	0xbd264a18	-0.040598005
72	0xbd8f6f08	-0.070035994
73	0x3d84cead	0.06484733
74	0x3d42872e	0.0474922
75	0x3d1228d8	0.035683483
76	0x3cd738e4	0.026272245
77	0xbd7c2a1c	-0.061563596
78	0xbc9f8550	-0.019472748
79	0x3d50d8ca	0.050987996
80	0xbca60f30	-0.020270914
81	0x3d71587e	0.058922283
82	0xbbf2f980	-0.0074149966
83	0xbd32ed4e	-0.043683343
84	0xbb605c20	-0.0034234598
85	0xbd8186c4	-0.06324533
86	0x3dac4c2b	0.084129654
87	0x3d5460ce	0.051850133
88	0xbdafa528	-0.08576423
89	0x3d2a95d2	0.041646786
90	0xbc4d3a28	-0.012526073
91	0xba2f5d80	-0.0006689653
92	0xbbd41b30	-0.0064729676
93	0x3d062bcc	0.03275661
94	0x3d8393bb	0.06424662
95	0xbd715cab	-0.058926266
96	0xbcafc89c	-0.021457963
97	0xbd8b7fd6	-0.06811492
98	0x3cedd33c	0.029031388
99	0x3d3d4f1a	0.046218015
100	0xbd40b4f0	-0.047047555
101	0x3d9955d3	0.07487073
102	0x3b0d8fe0	0.0021600649
103	0xbd9dbf66	-0.07702522
104	0xbd2216a1	-0.03957236
105	0x3be0e760	0.0068635195
106	0x3d0d7c8a	0.034542598
107	0xbdb291b1	-0.08719195
108	0xbd794f56	-0.060866676
109	0xbd619f08	-0.055083305
110	0xbd4c409a	-0.049866296
111	0x3d231536	0.03981515
112	0x3db05f6f	0.086119525
113	0x3ccb5e64	0.024825282
114	0x3dabc051	0.08386291
115	0x3be89fd0	0.0070991293
116	0x3d2d911a	0.042374708
117	0x3d2e694a	0.04258088
118	0x3d0daa0c	0.034585997
119	0xbd675494	-0.056477144
120	0xba998380	-0.0011712164
121	0x3bef0cc0	0.007295221
122	0x3cd7f1e0	0.026360452
123	0xbc2e13f0	-0.010624871
124	0xbd796465	-0.06088676
125	0xbd9f1477	-0.07767575
126	0x3d48e452	0.04904587
127	0x3d11fe40	0.035642862
128	0x3d8027df	0.06257605
129	0x3ce2cd8c	0.027685903
130	0xbccdc768	-0.025119498
131	0x3d066f0e	0.032820754
132	0xbd597323	-0.05308832
133	0xbd7b47bf	-0.06134772
134	0xbd1da561	-0.038487796
135	0xbd116858	-0.0354999
136	0x3d2fe01a	0.04293833
137	0x3b950de0	0.004548773
138	0x3cf8e5f8	0.030383095
139	0xbd3346bb	-0.043768626
140	0x3d6dfcde	0.05810248
141	0x3af8e5c0	0.0018989369
142	0xbb973f50	-0.0046157017
143	0xbd419408	-0.047260314
144	0x3d5b99fe	0.053613655
145	0x3d1f910e	0.038956694
146	0x3db2c7e5	0.08729533
147	0x3d8a9b5f	0.06767916
148	0xbdb34635	-0.08753625
149	0x3d6158fa	0.055016495
150	0xbd611662	-0.054952987
151	0xbc89c528	-0.016817644
152	0xbd36f7d0	-0.044669926
153	0x3cb5ec20	0.02220732
154	0xbd859b56	-0.065237686
155	0xbd0bd48d	-0.03413825
156	0x3da3c555	0.079966225
157	0xbc1ade28	-0.00945238
158	0xbca8fc34	-0.020628072
159	0x3ce68698	0.028140351
160	0x3c9f78e4	0.019466825
161	0x3d9c5fc5	0.07635454
162	0x3c291fa8	0.010322489
163	0x3c68a300	0.0141990185
164	0xbd6e2171	-0.05813736
165	0xbdb08721	-0.08619524
166	0x3d1dadba	0.038495757
167	0xbcc5cf18	-0.024146602
168	0x3ce47de0	0.027892053
169	0xbce2adee	-0.027670827
170	0x3d81cce5	0.06337909
171	0xbda30ca8	-0.07961398
172	0xbca3a77c	-0.019977324
173	0x3baf35a0	0.005346969
174	0xbc710290	-0.014710084
175	0xbd9c7ab0	-0.07640588
176	0xbda12b43	-0.0786958
177	0xbda6271d	-0.08112929
178	0xbd6c4348	-0.057681352
179	0x39b72300	0.00034930557
180	0xba5c6880	-0.00084079057
181	0x3d270b52	0.04078228
182	0xbc8e0d04	-0.01734019
183	0xbd926d8e	-0.07149802
184	0xbd207142	-0.03917051
185	0xbd9573f9	-0.07297511
186	0x3be8bd80	0.0071026683
187	0x3d5906a2	0.05298484
188	0x3db28ba5	0.08718041
189	0xbdb1b009	-0.08676154
190	0x3d8fa06b	0.07013019
191	0x3dab5c8b	0.083672605
192	0x3d46af62	0.0485071
193	0xbcf35fa4	-0.029708691
194	0xbda1d7e9	-0.0790251
195	0xbca6af0c	-0.02034714
196	0x3d88f03b	0.06686445
197	0x3db23061	0.08700634
198	0xbd1c2daf	-0.038129505
199	0x3d9f363d	0.07774017
200	0x3daf6de5	0.085658826
201	0xbd215a1e	-0.039392583
202	0xbd72c0b2	-0.0592658
203	0x3db01b17	0.08598917
204	0xbc843fb4	-0.016143657
205	0xbc58cb08	-0.013232
206	0xbd47633b	-0.048678618
207	0x3d8ae34b	0.06781634
208	0xbbb1da00	-0.005427599
209	0xbd42fead	-0.04760616
210	0xbdb0a994	-0.086260945
211	0x3d96e13b	0.07367178
212	0xbcfb3d4e	-0.03066888
213	0x3d94f541	0.07273341
214	0x3ced7730	0.028987497
215	0x3d70be7a	0.058775403
216	0xbd3c16bc	-0.04592012
217	0xbdb0af09	-0.08627135
218	0xbc8474bc	-0.016168945
219	0x3cc807dc	0.02441781
220	0x3cffa5b8	0.03120695
221	0x3d73bb2a	0.059504665
222	0x3d75b88e	0.05999046
223	0xbc72aa28	-0.014811076
224	0xbd83f23e	-0.064426884
225	0xbd8d78d4	-0.06907812
226	0xbb96b400	-0.0045990944
227	0xbc743c40	-0.014906943
228	0xb964fc00	-0.00021837652
229	0xbd8302d0	-0.06397021
230	0xbd0866e0	-0.033301234
231	0x3d654b2e	0.0559799
232	0xbc943e94	-0.018096246
233	0xbd48e55b	-0.049046855
234	0x3c14a6c0	0.009072959
235	0xbcd96136	-0.026535612
236	0xbdaa63b7	-0.083198
237	0x3d16bfa6	0.036803864
238	0x3b2ccc20	0.0026366785
239	0x3da0f787	0.07859712
240	0x3c706450	0.014672354
241	0xbd18843a	-0.037235476
242	0xbc882c94	-0.016622819
243	0x3d93a6e5	0.07209567
244	0x3d5601ee	0.052247934
245	0x3d700d1e	0.05860626
246	0x3c6f6040	0.01461035
247	0xbc1071d8	-0.008816205
248	0x3d4c4dea	0.049878992
249	0xbaa57bc0	-0.0012625381
250	0xbc842c58	-0.016134426
251	0xbda9fc51	-0.08300079
252	0x3ccaa8e8	0.024738744
253	0xbd8f191e	-0.069872126
254	0xbd8dd2de	-0.06924985
255	0xbcd03b24	-0.025418825

output_layer.bias f4 [4]
0	0xbcc85514	-0.02445463
1	0xbd460e6e	-0.048353605
2	0x3d042770	0.032264173
3	0x3d16d1e2	0.036821254
