results/navigation/run/trials/default/seed_22/checkpoints/model.392.tar (torch, 89831 bytes, 6 tensors)

input_layer.weight f4 [128, 37]
000000 f0 e5 8e 3d 60 61 2b 3e ff 06 2f 3e 84 9c 49 3e
       0.06977451 0.16736364 0.17092513 0.19688612
000010 58 9d e2 3d 0e 0c 91 3e 38 e5 a7 3d 76 0a 70 bd
       0.11065167 0.2832951 0.08198017 -0.058603726
000020 36 4c 40 be b0 97 d0 3d 4f fc 4a be bb 2e d4 3d
       -0.18779072 0.10185182 -0.1982281 0.10360476
000030 ba 2c ac bd 6e 6d 8e 3e 13 45 dd 3e 4b c8 32 3e
       -0.084069684 0.27817863 0.43216762 0.17459218
000040 0a 6d 4a 3c 7f c8 0d 3e 26 e0 44 3e 32 06 61 bc
       0.0123550985 0.13846014 0.19226131 -0.013734387
000050 15 49 0e 3e 65 02 b5 bd 2f 5e 9b bd c9 94 0b 3d
       0.13895066 -0.08838347 -0.075863235 0.03407744
000060 64 83 7e bd df 91 8f bd eb ce b9 bb ee 55 c8 3c
       -0.062137023 -0.070102446 -0.0056704185 0.024455037
000070 dd de b5 3a 0c 58 64 3e 0f c1 09 3e 2f f8 b5 bd
       0.0013875623 0.22299212 0.13452552 -0.08885228
000080 58 13 44 3c bb e9 1d bd ea 18 9a be 77 ed 39 3d
       0.011967503 -0.03855298 -0.30097133 0.04539248
000090 b9 b3 77 3c 1e 40 3d 3d e1 f5 39 bc 8e 43 f6 3d
       0.015118533 0.046203725 -0.011350126 0.12024604
0000a0 93 ee d6 bd dd 97 24 be fb 0f f0 bd 47 4e 16 3e
       -0.10494723 -0.16073556 -0.11721798 0.14678298
0000b0 b1 ab 4f bd f0 33 68 3d fe 37 5a 3e a2 dc 20 be
       -0.050700847 0.056690156 0.21310422 -0.15709165
0000c0 bb 54 8c 3c b9 b1 ba bc 46 30 b0 3d aa 16 42 3d
       0.017130246 -0.022789823 0.086029574 0.047384895
0000d0 f5 ca 1b 3e f6 17 a8 bd d4 07 f5 bc 25 63 86 bd
       0.1521414 -0.08207695 -0.02991096 -0.06561879
0000e0 5b b3 56 bd 71 47 ff bd db 8e 66 bd b6 b3 94 3c
       -0.05241714 -0.12464798 -0.05628858 0.0181521
0000f0 4f 99 72 be b5 9d 9a 3d 06 f7 e8 3b 9d a9 4f bd
       -0.23691295 0.075496115 0.0071095256 -0.050698865
000100 bc db ca 3d 02 9c 46 3e 39 89 f4 bc 55 4a 8b 3c
       0.09905192 0.1939545 -0.02985059 0.017003218
000110 3a 87 39 3a 07 b3 81 3b 93 28 ee 3d d3 c0 3a 3e
       0.000707734 0.0039581093 0.11628833 0.18237619
000120 e0 58 9e bd fc 84 97 3d e5 43 96 3d cc 96 d0 bd
       -0.07731795 0.07398412 0.073371686 -0.10185012
000130 60 60 af 3d e5 f5 7a bd 73 1d 1a be 9c 9e e0 3d
       0.08563304 -0.06126966 -0.15050296 0.10967752
000140 5d 00 7a bd 80 fe 81 bd 2d db ec bd ec c6 4f bd
       -0.061035503 -0.0634737 -0.11565242 -0.050726816
000150 a8 c8 e2 3d a1 6b 7c bd 84 55 6a 3e fa 4b f8 bc
       0.110734284 -0.06162608 0.22884184 -0.030309666
000160 fb 5b 1a bd 2b e4 0f 3e 6c 9a 62 3d cd e9 1b 3e
       -0.037685376 0.14051883 0.05532305 0.15225907
000170 4b 7d 0a 3c 09 3a 3a 3c 6e 50 87 3d 38 5a a4 3d
       0.008452724 0.011366376 0.066071376 0.0802502
000180 05 19 50 3d b1 f4 2e bd 5a f5 af bc ef 74 9a bd
       0.05080511 -0.042713825 -0.021479297 -0.075418346
000190 37 38 84 3e 3a 8e 35 3d b2 0f f2 bd de a0 f1 3d
       0.2582414 0.04432509 -0.118194 0.11798261
0001a0 28 ad 12 3e 62 3c a5 bd 09 6e 60 3e 3f cf f2 3b
       0.14323866 -0.08068158 0.21916975 0.0074099596
0001b0 b4 08 fa bb 7f 17 8b 3b ee 31 7d bc 65 67 d1 3d
       -0.007630432 0.0042447443 -0.015453799 0.10224799
0001c0 33 c1 9e 3d 93 fe cf 3c dc cc ad bc 51 5d df bd
       0.077516936 0.025389945 -0.021215849 -0.109064706
0001d0 ba 62 95 3e f9 55 8d be 4d c9 8f be 26 3b 18 be
       0.29176885 -0.27604654 -0.28083268 -0.14866313
0001e0 86 21 85 bf 20 50 b9 3d e2 8d 0b 3e f1 de 6b 3d
       -1.0400856 0.09048486 0.13628343 0.05758566
0001f0 d6 90 5c 3c cc 9c 00 be 16 fa 91 3d 62 fe 09 3d
       0.013462266 -0.12559813 0.07127778 0.033689864
000200 e6 a8 65 3d c9 b4 86 bb 0c 9a 75 3c c8 d2 5b bc
       0.056069277 -0.0041109067 0.014990341 -0.013416953
000210 6a 57 77 bd 3c 76 a1 bb 80 19 dc 3c 87 8f 8a 3d
       -0.0603861 -0.0049274247 0.026867628 0.06765657
000220 35 4f 28 bd 9d 26 a5 bd fa b9 09 be 9a 56 38 bd
       -0.041091163 -0.080640055 -0.1344985 -0.045004465
000230 cd ba c7 bd 1e c0 42 3d c7 b2 f4 3c 8b 55 50 3a
       -0.09752426 0.0475465 0.029870404 0.0007947317
000240 2f b2 35 3d b0 cd 4f bd 2a 24 4d 3c 17 84 93 3a
       0.044359382 -0.05073327 0.012520829 0.0011254576
000250 84 21 86 bd ec c7 a5 3d 53 3b 17 3e dc b4 96 3d
       -0.06549361 0.08094773 0.14768724 0.07358715
000260 ed a8 5b 3e 7f 34 9e bd fe 99 85 3c 88 64 00 3e
       0.21451159 -0.077248566 0.01630878 0.1253835
000270 91 dd 67 bd 45 f6 11 be 78 ad 44 3e cb 21 ba 3d
       -0.056607787 -0.142541 0.19206798 0.09088477
000280 27 39 77 3d bd 4a 9e 3b 87 ce 37 be 6d 59 5f 3e
       0.06035724 0.004830687 -0.17949878 0.21811457
000290 9c 98 de 3d 41 e5 18 3e e3 2b c2 3b 2d 09 15 be
       0.10868952 0.14931203 0.005925642 -0.14554282
0002a0 35 6e 99 3d a7 f6 c1 3d 51 bc 07 3e d7 fa 4a 3d
       0.074917234 0.09470873 0.13255431 0.049555626
0002b0 17 35 83 3d 3e 72 cd 3b dd 5d 18 3e 73 97 27 3e
       0.064066105 0.0062697222 0.14879556 0.16366367
0002c0 4d 41 b7 3d da 9f 32 be 92 ca 7b 3e a2 38 cf 3d
       0.08948002 -0.17443791 0.24588993 0.10118224
0002d0 4b 45 69 3d 69 f6 e9 3d 5a 2a 47 be c7 33 89 3d
       0.05695085 0.11423952 -0.1944975 0.06699329
0002e0 8c 6a 22 3d cf fb dd 3d 13 bd 47 be 6f 97 d1 bd
       0.039652392 0.10839044 -0.1950572 -0.10233962
0002f0 00 0d c6 bd d4 9b 8c 3e e3 a5 f1 bb 19 55 31 be
       -0.09670448 0.27462637 -0.0073745116 -0.17317618
000300 3a 5f c4 bd 8d ee 2a bb 3f 74 e6 3d 61 6b c0 3d
       -0.095884755 -0.0026082129 0.11252641 0.09395481
000310 92 cd 34 3e 6c 35 56 bb 8a 02 ca bc 74 50 f4 3d
       0.17656544 -0.003268565 -0.024659414 0.11929408
000320 a4 d3 fd 3c 12 35 0a be c9 d9 8b 3d e8 96 69 bd
       0.030984707 -0.13496807 0.068286486 -0.05702868
000330 1e a0 fb 3c 3d 81 2c be 95 56 f4 3d 1a 3b 9e bd
       0.030715998 -0.16846175 0.11930577 -0.077261165
000340 38 3c 33 3d 6b e2 91 bd 8f 7b 63 3d f6 2c 1c bd
       0.0437586 -0.07123264 0.055537757 -0.038128816
000350 4d 7c d3 bd fc 28 ca bd 18 52 f0 3c 4a 49 a8 bd
       -0.10326443 -0.098710984 0.02933602 -0.08217104
000360 97 d1 52 bd a1 b8 09 3d a8 1b 95 bd ed aa 45 3d
       -0.05146941 0.03362334 -0.07280666 0.04825871
000370 ac 00 1a be 9c c5 63 bd 6b 8f 1d 3e a2 82 98 bc
       -0.15039319 -0.055608377 0.15386741 -0.018616978
000380 e3 4c 9c bd 9c b8 03 3e f7 b6 f4 3d ab 70 1c 3e
       -0.076318525 0.12863392 0.1194896 0.15277354
000390 b9 bf 6f 3d db 7b 35 3e f7 84 93 bd 07 26 19 be
       0.05853245 0.17723028 -0.072030954 -0.14955913
0003a0 5f 6d 7f 3d 59 48 36 3e e0 23 4e 3e 11 d2 ac 3d
       0.062360164 0.17801036 0.20130873 0.084385045
0003b0 89 be 45 3c 79 b4 31 3e 3d 18 4d bd c1 b4 14 3e
       0.012069353 0.17354001 -0.050071944 0.14522077
0003c0 da 15 1d 3e 8b af 19 3e 5f 71 ef bc b3 dc e3 3d
       0.15340367 0.1500837 -0.029228864 0.111260794
0003d0 76 a4 20 bd 3e 98 87 3d 1e 34 b1 3d a8 22 91 bc
       -0.039219342 0.06620835 0.08652519 -0.01771672
0003e0 49 48 f3 3b 40 27 28 3e b6 55 82 3e 3e fc 01 bd
       0.0074243885 0.16421223 0.25456017 -0.031734698
0003f0 9d e4 1c bd 4a 04 46 3d fd 2f 49 3d 1c 4d f4 3d
       -0.03830396 0.048343934 0.04911803 0.1192877

input_layer.bias f4 [128]
000000 b6 0d a5 bb 81 44 25 be 8e 4a 99 3d aa 21 21 3e
       -0.005037035 -0.16139413 0.07484923 0.15735498
000010 cc 02 7b 3e ff 71 9c 3d 61 81 51 bc 14 ee 86 bd
       0.24512786 0.076389305 -0.012787194 -0.065883785
000020 69 5e 3b bd b5 d6 22 be f6 8e 1e 3e 3f 17 a0 bc
       -0.045744333 -0.15902217 0.15484223 -0.019542335
000030 d5 7d e1 3b 38 fa 88 3e a5 f4 8f bd 1c 88 d9 3c
       0.0068814554 0.26753402 -0.07029084 0.02655416
000040 c1 f4 d7 3d 3f d1 e3 3c 51 33 15 3e 28 bb 02 3e
       0.1054473 0.027809737 0.14570357 0.12766707
000050 48 6d ff bd 89 01 eb bd fd 65 1e 3c ff 4a 88 3d
       -0.124720156 -0.11474902 0.009667871 0.06654929
000060 21 fe 17 be 5a 32 03 bd ea c0 9f bd c2 16 e9 3d
       -0.14843036 -0.03203044 -0.07800467 0.11381294
000070 e5 b1 c6 3d c1 85 92 3d 51 01 fe bb 4f 21 82 3e
       0.097018994 0.07154418 -0.007751622 0.25416037
000080 c1 ff 31 3e a6 73 fe bd 93 34 1f bd 0a cc 36 be
       0.17382719 -0.12424402 -0.038868498 -0.17851272
000090 58 fe 96 bc dd 13 c2 3d f5 0d 80 3d 48 c5 70 3e
       -0.018431827 0.09476445 0.06252662 0.23512757
0000a0 07 41 85 3e 45 02 a1 bd bf 61 e0 bd 1b ad 03 3e
       0.26026174 -0.07861761 -0.109561436 0.12859003
0000b0 b3 2a 9b bc aa 3b 07 3e b7 44 ba bd 10 c9 25 bd
       -0.018941259 0.13206354 -0.090951376 -0.04047495
0000c0 59 d7 2c 3d dd 23 55 bd 0e 8a 68 3d dc c7 c3 3d
       0.04219756 -0.052036155 0.056772284 0.095596045
0000d0 9a 63 df bd e0 ff ab bd 78 65 14 3e a1 fe 29 bd
       -0.10907669 -0.08398414 0.14491832 -0.0415026
0000e0 7c 5e 5e 3e 7b 21 71 3e 81 61 aa 3d b9 40 7e 3e
       0.2171573 0.23547928 0.08319379 0.24829377
0000f0 7a 28 d0 bd 71 93 6e 3d 93 e0 8f 3d 9f 35 63 bd
       -0.1016397 0.05824608 0.07025256 -0.05547106
000100 00 bb ff 3d 2d a5 d1 bd 03 62 1a 3e 3e 41 82 3c
       0.12486839 -0.10236583 0.15076451 0.01590025
000110 72 3d 91 3e 56 44 e6 3d 27 7e cc bd f5 77 10 bd
       0.28367192 0.11243503 -0.09984999 -0.03527065
000120 6b d1 c2 3d b3 1b 8b bd 8c 75 83 3d ec 8e bc 3d
       0.095125996 -0.067923926 0.06418905 0.09206948
000130 d6 33 7b bd 9f 6b d2 bd fb b1 21 bd 7b de 96 3c
       -0.06132873 -0.10274433 -0.039476376 0.018416634
000140 45 b6 eb bd 6e 9b 24 bd ea da 69 3c 15 4b 9f bc
       -0.115093745 -0.04018729 0.014273385 -0.019444982
000150 3a 6b 85 bd 1b 32 16 3d 45 96 79 3d 27 8d a3 ba
       -0.065145925 0.036668878 0.060934324 -0.001247798
000160 ed 00 5d 3c 56 c1 46 3e 36 3b 0b bc fc 0d 05 3e
       0.01348899 0.1940969 -0.008498004 0.12993616
000170 21 1f 20 3e cc 9b d0 bd a6 bd 34 be a9 c6 36 3e
       0.15636875 -0.10185966 -0.1765047 0.1784922
000180 d8 d7 cd 3b 8e f9 83 3d 5a a4 fa 3d 54 49 0b 3c
       0.006281834 0.06444083 0.12238379 0.0085013695
000190 50 63 19 3e 4d 08 20 be c5 a3 ce 3b 35 2e fd 3d
       0.14979291 -0.15628166 0.006306144 0.12362329
0001a0 dd 40 c1 bd d4 4f 0f 3e 28 f8 1d bd 38 14 95 3c
       -0.094362 0.13995296 -0.03856674 0.018198118
0001b0 33 ec b2 bd 8f a5 92 3c dd ac c0 bc 13 eb cd bc
       -0.08736458 0.01790121 -0.023519928 -0.025136506
0001c0 26 dc 10 3e bf 4a 1a 3e 22 04 f7 3c 59 23 b7 3c
       0.1414648 0.15067576 0.030153338 0.022355722
0001d0 80 64 69 3e fe fa 44 3e ef 60 3a be 9e 65 26 3e
       0.22792244 0.19236371 -0.1820104 0.16249701
0001e0 65 c7 6f bc 81 67 7c 3e 50 73 50 bd 56 97 ae 3d
       -0.014634942 0.24648859 -0.05089122 0.08524959
0001f0 10 4d 9b 3d 19 60 a1 3c a6 88 e6 3d 26 05 20 3e
       0.07583058 0.019699143 0.11256532 0.15626964

hidden_layers.0.weight f4 [128, 128]
000000 29 0b 80 bd 7e cd 70 bd 48 67 43 bc e6 fb 73 be
       -0.06252129 -0.058789723 -0.01192648 -0.2382656
000010 cd 07 bf 3d c1 d9 00 3d 1e e7 cc bc 5c 8f ac 3c
       0.0932766 0.031457666 -0.025012549 0.021064453
000020 d4 35 9c 3a 39 65 9c 37 86 43 9b 3d 54 81 64 bd
       0.0011917898 1.8643785e-05 0.075812384 -0.0557874
000030 83 4d 3f bb f6 3d 08 bd 60 93 32 bc 56 74 ff bc
       -0.0029190488 -0.033262216 -0.010899395 -0.031183403
000040 63 d9 56 3b 81 22 c6 3c 25 d5 30 3d 28 37 b2 bd
       0.0032783381 0.024186375 0.04317202 -0.087019265
000050 7b a2 44 3d fe 19 f6 bc b9 4b 8e 3b 5e 69 00 bd
       0.048006516 -0.03004169 0.004342523 -0.031350486
000060 5f 2f 77 bd 65 b3 9c 3e 7a 11 69 bd de 84 6e bd
       -0.06034791 0.30605617 -0.056901433 -0.05823218
000070 21 14 30 be 9d b2 78 bd cc 88 46 3d a3 30 fe 3c
       -0.17195179 -0.060717214 0.048470303 0.031029051
000080 16 80 28 bc 84 d4 ab 3d 90 79 07 3d fc 96 10 bd
       -0.010284444 0.083901435 0.033074915 -0.03530024
000090 be 79 30 be 88 90 88 bc 86 17 14 be ca ff 9c 3d
       -0.17233941 -0.01667048 -0.14462098 0.076659754
0000a0 d7 60 d7 3c f4 cf 2c be 2a d8 47 3d f3 67 a0 bc
       0.026291294 -0.16876203 0.048790134 -0.019580817
0000b0 b3 fc b2 3c 2a a0 8c 3d 0e 1d c9 bd cd 66 1f bd
       0.021849012 0.06866486 -0.09819995 -0.038916398
0000c0 21 c6 9e 3d 6c 34 82 3c 98 61 4b 3c 90 7a 63 3d
       0.07752634 0.015894137 0.012413405 0.055536807
0000d0 62 0e d7 3c 02 d4 ac bc 3c 1b 87 bc 29 ed 89 bd
       0.026251975 -0.021097187 -0.016492479 -0.06734688
0000e0 89 9c b3 3d 00 1a 7d bd 76 9d 73 3c 4d 02 7d bc
       0.08770091 -0.061792374 0.014869085 -0.015442443
0000f0 bd c3 be 3c b6 4f fc 3a 7c 79 8b 3c bc b1 85 3d
       0.023286695 0.001924983 0.017025702 0.06528041
000100 da bf ce bd 11 79 8a 3d fb 42 18 bc 48 05 41 3d
       -0.100951865 0.06761373 -0.009293313 0.047124177
000110 89 f5 54 3b 70 6f 22 3d 1c 40 67 bd 4a c4 0a bd
       0.0032494983 0.039657056 -0.056457624 -0.033878602
000120 69 64 b1 bc 63 6f 40 3d 85 df ae 3d e2 df 66 bd
       -0.021654325 0.046981227 0.08538727 -0.056365855
000130 1d c9 81 3d 8f 4e da ba a8 7f dd 3d ef 63 bf 3d
       0.063371874 -0.0016655492 0.10815364 0.09345233
000140 56 d7 49 3d 2a 3c 51 bd 24 e1 78 3d 75 b1 9e 3c
       0.049277626 -0.051082768 0.060761586 0.019371727
000150 22 b8 57 bd 45 ee a5 3d 78 83 14 be c5 e9 ae bd
       -0.052665837 0.08102087 -0.14503276 -0.08540682
000160 79 3e ed bc 61 a9 4a 3d 5b 65 b2 bc e7 6c b9 3c
       -0.028960453 0.04947794 -0.021776846 0.022634936
000170 c8 24 49 bd 00 56 bd bd 20 b3 b8 3d 46 f1 45 bc
       -0.049107343 -0.09244919 0.090185404 -0.01208145
000180 dd 38 99 bd b8 9a 22 be 54 0d 29 bd 50 61 2c bf
       -0.07481549 -0.15879333 -0.041272476 -0.6733599
000190 88 d8 21 bc 0c fb bd bc 30 9f bc 3d c9 76 44 b8
       -0.009878285 -0.023190998 0.0921005 -4.684067e-05
0001a0 67 76 45 bf 65 cb 6b 3d 01 25 a1 3d 21 a8 47 3d
       -0.7713379 0.05756702 0.07868386 0.048744325
0001b0 ef ed c7 bd c2 e2 9b 3d 12 25 2f bd 1b 9d 96 be
       -0.09762179 0.0761161 -0.042759962 -0.29416737
0001c0 46 c0 6a 3b 43 b4 34 bd 2c 6f 19 bd e4 61 29 bd
       0.003582017 -0.044117223 -0.037459537 -0.04135312
0001d0 3f 93 89 3c 2d 84 a0 3d a2 2d ef 3d 4d 95 09 3d
       0.016793845 0.078377105 0.11678626 0.03358965
0001e0 0e c3 60 bd 21 cb af bd d9 d7 7f 3c ba 1e 2b bd
       -0.05487352 -0.08583666 0.015615427 -0.04177735
0001f0 12 0a ce 3c d3 66 82 bd a1 e8 96 3d f4 81 2b bd
       0.025151286 -0.063672684 0.07368589 -0.04187198
000200 40 91 e8 3d 7b 60 73 b8 c0 93 a2 bb 4e e9 d5 3c
       0.11355829 -5.802557e-05 -0.004961461 0.026112225
000210 cf 6e 2c 3c bd 39 ef bd 02 58 ef 3b ae 0f 63 3d
       0.010524466 -0.116809346 0.0073041925 0.055434875
000220 56 86 cc bd 29 bc 83 be a6 5b ed bd 46 6b 85 3c
       -0.0998656 -0.25729492 -0.11589746 0.016286504
000230 de 38 64 bd da df fc bc 05 4c 29 3d 9d 5c d0 bd
       -0.055718295 -0.03086846 0.041332263 -0.101739146
000240 54 0c 45 bd 09 2a 34 be c7 0f 10 bd 2e ab 3b bd
       -0.04810746 -0.1759416 -0.035171296 -0.045817547
000250 30 56 55 bd 5c f3 c6 bd c1 91 ee 3d 88 78 c8 3d
       -0.052084148 -0.09714386 0.11648894 0.097886145
000260 fd 6d 8d bd bb 7a 03 3c 54 ba 57 3d ea 67 c1 39
       -0.06905744 0.008024867 0.05266793 0.0003688925
000270 95 b1 35 3c 60 d6 65 bb 90 bb 0f 3e af fa f1 bb
       0.011089702 -0.0035070404 0.14036393 -0.00738462
000280 f0 49 3c 3d a7 f2 5b 3b 45 f9 8a 3c 5c b0 25 bd
       0.04596895 0.003356138 0.016964564 -0.040451393
000290 65 5c 95 be 11 b6 cb bb 28 1e cf 3d 0d 83 a6 bd
       -0.29172054 -0.0062167724 0.10113174 -0.08130465
0002a0 ed 08 62 3d f1 ae b8 3d b1 39 03 be 09 95 fc bd
       0.055184294 0.090177424 -0.12814976 -0.12333114
0002b0 a0 21 97 3d 12 40 ac 3c 2c 31 ea bc de be c8 bd
       0.0737946 0.021026645 -0.0285879 -0.0980203
0002c0 00 d7 65 bd 98 a9 ed 3c 82 47 59 bd 42 c8 08 3e
       -0.056113243 0.029011533 -0.05304671 0.13357642
0002d0 0b 87 04 bc 9f 96 85 3d 14 ca f3 bd 29 10 9b 3d
       -0.008088837 0.06522869 -0.11903778 0.07571442
0002e0 74 dd 8e 3d ee 56 57 bd f6 d7 5b bd e1 12 76 3c
       0.069758326 -0.052573137 -0.053672753 0.0150191495
0002f0 02 99 96 bd d7 9f 03 3d ac 22 f2 bd a4 5b 87 bc
       -0.07353403 0.032134857 -0.118230194 -0.01652319
000300 0a 25 8a 3c 71 f8 df bd 0f ea 90 3d 20 6d 77 bd
       0.016863365 -0.10936058 0.07075893 -0.060406804
000310 48 a4 29 bd 4a 38 d7 bc 30 28 a4 bd 7d de 94 3d
       -0.041416436 -0.026271958 -0.08015478 0.07268999
000320 a1 d9 5f 3c 97 b1 4d 3d 21 b4 2b 3d 83 0e 0e 3e
       0.013662727 0.05021819 0.04191983 0.13872723
000330 52 a6 a9 3d 48 a9 89 bc 64 5b 4e bb 49 2f 06 3d
       0.08283676 -0.016804352 -0.0031487579 0.03275994
000340 8b a2 c2 3e 55 7b 83 3d d2 55 fc bd d4 96 ac 3c
       0.38014635 0.06420008 -0.123210564 0.021068014
000350 b0 fa 93 be 58 71 fc bb 74 3a b6 3d 5b 60 b9 bb
       -0.28902197 -0.0077039413 0.08897868 -0.0056572384
000360 71 73 51 3d d6 5e 69 3d ff 3a ff 3d 47 c8 37 3d
       0.051135484 0.05697521 0.124624245 0.044868734
000370 fe fa 12 bd 05 d4 42 3e 1b 44 33 be c2 e1 8d 3d
       -0.035883896 0.19026192 -0.17506449 0.069278255
000380 00 f0 f3 bd 83 ac 8d bb a6 67 65 3d ad 35 ec bd
       -0.11911011 -0.0043235435 0.05600705 -0.11533675
000390 05 8f b5 3c b3 79 66 be 43 5c f7 3c fd bd 38 bd
       0.022162924 -0.22507362 0.030195361 -0.045103062
0003a0 d7 63 da bd 52 43 8c bc 57 86 c4 bd 49 c2 b1 bd
       -0.10663574 -0.017121945 -0.09595936 -0.08679635
0003b0 60 af cd bd 23 e0 06 3c 47 ab d6 3c 26 c5 93 3c
       -0.10043216 0.008232149 0.026204718 0.018038344
0003c0 84 4f df bd 3f 74 6e bd 0e eb ae 3d 8f c7 3b 3e
       -0.10903838 -0.05821633 0.08540927 0.18337844
0003d0 f4 bd 21 3c 66 92 4d 3c d8 7c 33 3d eb 4f 91 bc
       0.0098719485 0.012547111 0.043820232 -0.017738303
0003e0 b4 73 22 3d 95 e5 26 ba 9b 94 d3 bc a0 76 96 bc
       0.039661124 -0.0006366608 -0.025827697 -0.018367112
0003f0 85 8c 5c 3d 01 c1 be bc e0 6c 99 3d 2c 64 2e 3d
       0.053844947 -0.02328539 0.074914694 0.042576

hidden_layers.0.bias f4 [128]
000000 af 90 ca 3d 8e be 2b bd 4d d3 03 3d c1 85 91 3d
       0.098908775 -0.041929774 0.032183934 0.0710559
000010 52 7e 4f 3c 54 d5 cd 3d 8e 58 1b 3e 68 e3 09 bd
       0.012664394 0.10050455 0.151705 -0.033664137
000020 b6 fe d0 3d d6 44 12 3d 2f 17 65 3d af 78 19 3d
       0.10204832 0.03571018 0.055930313 0.03746861
000030 28 2e 5a 3d 93 4c 00 3e ff fa 29 bc aa 21 93 bd
       0.053266674 0.12529211 -0.010374784 -0.07184155
000040 85 ed 94 3c 6b d2 81 3b c0 f1 0b bd ea 4a 01 3e
       0.018179664 0.0039618514 -0.034166098 0.12626234
000050 b2 a3 9c bb e6 10 46 3e f5 b7 16 3c 33 d1 11 3e
       -0.004780256 0.19342384 0.009199132 0.1423996
000060 a9 0d 3b 3d 54 42 fe 3b 19 70 65 3c 14 7f 6b bd
       0.045667324 0.007759372 0.014003777 -0.057494238
000070 90 cd e9 3d f4 48 ec 3d 6d 9a 18 3e 6f 96 d4 3c
       0.11416161 0.11537352 0.14902659 0.025950639
000080 c0 1b eb 3d da 38 36 3d 9e 2f d4 bc 3e fa 07 bd
       0.11479902 0.04448781 -0.025901612 -0.033197634
000090 9d 69 9e bc 01 a1 e6 3d a7 93 c6 3d bc 0a a6 3d
       -0.01933747 0.11261178 0.09696131 0.08107516
0000a0 e3 56 dc 3b eb 4d 3b 3d ad 92 be 3d ec bb 2d bb
       0.006724225 0.045728605 0.0930532 -0.0026509715
0000b0 17 c7 90 3d 94 3d 07 3d f8 b7 94 3b 5a 6a ff 3b
       0.070692234 0.03301771 0.0045385323 0.0077946605
0000c0 2a 96 72 bc 4b 05 85 3c 4c d8 af 3b da 93 8b 3d
       -0.01480631 0.016237875 0.005366361 0.0681531
0000d0 7e c3 fe 3c 96 68 d2 3d 80 8a d6 3b 29 6d 87 3d
       0.031099077 0.102738544 0.006547272 0.066126175
0000e0 75 8a b7 3d 43 e5 fb bc 1b c2 21 bd 89 bb c4 3d
       0.089619555 -0.030748969 -0.039491754 0.09606082
0000f0 62 34 99 bd af b8 5b 3d 92 5c 1a bd 95 b2 50 3d
       -0.07480694 0.053642925 -0.03768594 0.05095156
000100 64 65 d5 bc 87 97 db bd 2e 41 77 3d 7c 6c 87 3d
       -0.026049323 -0.10722261 0.060364895 0.066124886
000110 18 52 67 bd 4a ce 78 3c 28 3c da 3c 20 2d b4 bd
       -0.056474775 0.015185902 0.026640013 -0.087976694
000120 b3 69 98 bd 44 73 01 3c 7b 3e 82 3d 50 f5 8e bd
       -0.074420355 0.007901017 0.063595735 -0.069803834
000130 4c 05 11 bd 41 b3 a7 bd d3 76 14 bc 97 03 f4 3d
       -0.035405442 -0.08188487 -0.009061533 0.11914747
000140 12 41 5d 3c ab ff 20 bd d3 de c8 bd 49 a3 68 bc
       0.0135042835 -0.039306324 -0.09808125 -0.014199086
000150 73 e0 93 3c fd 39 43 3d 23 e1 3b 3c de 4a d0 3b
       0.018051362 0.047662724 0.011467251 0.006356581
000160 e1 0d c9 bd 26 78 f1 3c 27 80 b0 bd f0 e2 06 3e
       -0.098171 0.029476237 -0.08618193 0.13172507
000170 41 a4 1a 3e ba 48 86 bd df 78 50 bd 5a 6e c3 3c
       0.1510172 -0.0655684 -0.05089652 0.02385633
000180 64 f8 27 bd aa 1c cf bd 7c ff 1b bd 8c 37 28 3e
       -0.041008368 -0.10112889 -0.038085446 0.1642744
000190 3b 7b a8 3d df a5 92 bd e4 0e 0f 3d a6 db cc 3d
       0.08226629 -0.07160544 0.03492631 0.10002832
0001a0 2d 17 69 bd b8 8b 9b 3d 6a a8 af 3c d8 bf 04 bd
       -0.056906868 0.075950086 0.02144261 -0.03240952
0001b0 05 a4 ea bc f8 b5 c2 3d 87 6e 25 bd 8f d7 28 3e
       -0.028642664 0.09507364 -0.04038861 0.16488479
0001c0 d1 9f ac 3d 57 0e 23 3d b5 56 de 3d 85 47 b1 bd
       0.0842892 0.039808597 0.10856382 -0.086562194
0001d0 ae 5e 4a 3e cd 3f dd 3d 78 19 c2 3c d8 77 d7 bd
       0.1976268 0.10803185 0.023693785 -0.10520905
0001e0 88 9e 03 3e 52 3d a6 bc 82 e9 cc 3d 07 33 66 bc
       0.12853444 -0.020292912 0.100054756 -0.014050252
0001f0 57 48 7c bd bb 77 1f 3b 55 02 80 bb e3 03 d3 bc
       -0.061592426 0.002433284 -0.003906528 -0.02575869

output_layer.weight f4 [4, 128]
000000 09 cb 3c be af 4e 02 3d 0c cc 7e 3d 2a 0d ef bd
       -0.18436827 0.03181332 0.062206313 -0.11672433
000010 68 66 a4 3e 92 fa a0 3d ab c6 d2 3d db 9a 79 3e
       0.3210938 0.078602925 0.10291799 0.24375479
000020 56 56 7f 3d 00 1c 16 bd 5c 9a 03 3e a3 bc 3d ba
       0.062338196 -0.036647797 0.12851852 -0.0007237887
000030 7c df 7a 3c 74 dd 91 3c 5b 78 c3 3e 2d fd 75 3d
       0.015312072 0.017805792 0.3817776 0.0600559
000040 2e 71 36 3d 2c e0 fd 3c 7a cb f6 bd b9 3d 19 3e
       0.04454153 0.030990683 -0.12050529 0.14964952
000050 a3 2d 9f bd fc 3c 89 3c 05 af 20 3b 60 8f ef 3d
       -0.077723764 0.016752712 0.0024518382 0.116972685
000060 14 0d ca 3d 70 1b 7b 3e fc 00 d6 bd 77 df a1 bd
       0.09865776 0.24522185 -0.104494065 -0.07903951
000070 48 79 1c 3e de 2f d2 3d d0 4e e4 3d 2f 6b 9d bd
       0.1528064 0.10263036 0.11147845 -0.07686459
000080 6e ff 48 3d 47 64 23 3e fc f5 df 3d 19 e2 b2 bc
       0.04907172 0.15956222 0.1093559 -0.021836327
000090 25 4d a6 bd c0 a1 e9 3d da f4 0e 3e c1 0c 78 3d
       -0.08120183 0.114078045 0.13960591 0.060559038
0000a0 b4 01 07 bb 63 d9 02 3f 26 6a 9f 3d ec e5 b8 3b
       -0.002060038 0.51112956 0.07783918 0.005642643
0000b0 98 4c 46 3d a0 35 ff bd 99 61 c5 3e 44 6c 5e 3e
       0.04841289 -0.124614 0.38551024 0.21720988
0000c0 d0 7c bf 3c eb 32 90 3d d2 0b 89 bc 18 3f 48 3e
       0.023374945 0.07040962 -0.01672927 0.19555318
0000d0 d7 dd e0 3d 05 10 ce 3d 08 fc bf 3c 05 a3 5f 3d
       0.109798126 0.10061649 0.023435608 0.054598827
0000e0 34 e2 91 3d 29 a1 d1 bd 6a 70 90 bc 9b 8a ae 3d
       0.07123223 -0.10235817 -0.017631728 0.08522531
0000f0 1c 3a bf bd 5a df 82 bd c4 90 40 be 6b 3c 19 bd
       -0.09337255 -0.06390257 -0.18805224 -0.037411135
000100 bd f1 b1 be 9d 3f cc 3a 94 9e af 3d f5 39 bb 3d
       -0.34754744 0.0015582923 0.08575168 0.09141914
000110 f1 c7 03 be 35 5f da 3d 60 79 ad 3c e5 3f ad bc
       -0.1286924 0.106626906 0.02117604 -0.021148631
000120 74 f4 54 be 86 37 e1 3e 3c 15 f0 3e 38 20 a1 3c
       -0.20796376 0.43987674 0.468912 0.019668683
000130 cc 28 51 3d 63 f3 db 3d d6 44 b1 be 5e da b6 3d
       0.051064298 0.10739782 -0.3462283 0.08928369
000140 83 a5 32 be a3 b4 aa 3d 05 98 a0 bd 0b c1 d7 bd
       -0.1744595 0.08335235 -0.078414954 -0.10534867
000150 e5 35 bb 3e 2d c2 80 bb fa b0 a8 3d 43 6a 89 3e
       0.36564556 -0.0039293976 0.082368806 0.26838884
000160 c7 8e 62 be 33 75 3f 3d 7e a5 95 bd 53 15 4f 3d
       -0.22124778 0.04674263 -0.07306956 0.050557446
000170 49 d8 4f 3d cc 2b 06 3d 69 31 04 3e 91 85 ee 3e
       0.050743375 0.03275661 0.12909473 0.46586278
000180 07 51 3d bc 7b 11 fa bc e7 8d f5 bb b6 ca eb 3d
       -0.011554963 -0.030525913 -0.0074937227 0.115132734
000190 6f c4 33 3c 64 3f c6 3d 90 15 e7 3d b6 82 63 bc
       0.010972126 0.096800596 0.112834096 -0.013886144
0001a0 19 8a aa 3d 63 5b 43 bd 6d 59 36 3d cb 97 a8 bd
       0.08327121 -0.047694575 0.044518877 -0.08232077
0001b0 eb b0 77 bd 93 1f 5b bc e4 40 58 3d 8c b9 aa 3d
       -0.060471456 -0.013374227 0.05279626 0.083361715
0001c0 80 5d 06 3e 90 9b a2 3d a9 43 02 3e 7d 62 79 bc
       0.13121605 0.079398274 0.12721123 -0.015221235
0001d0 55 be de 3d 35 e9 d1 3d e6 f2 92 3d 1d 6c 84 bd
       0.10876147 0.10249559 0.071752355 -0.064659335
0001e0 6d b6 51 3d 83 a7 19 be 69 68 c1 3d 26 07 52 bd
       0.051199365 -0.15005307 0.09443743 -0.05127635
0001f0 05 db fa bd 50 ce 05 3d c8 85 90 be b6 49 b6 bc
       -0.12248806 0.032667458 -0.28227067 -0.022251945
000200 d5 ca 77 3c a6 7b 76 3d 10 ff 0a bc d6 4e 38 be
       0.0151240425 0.060176514 -0.008483663 -0.17998824
000210 02 ed 0c 3f 2c 1f 8f bc b4 58 ef 3c 68 66 3d 3e
       0.55049145 -0.017470919 0.029217102 0.18496096
000220 fc e3 b5 3d 71 d1 8c 3d 69 1d af 3d 0d 7a 5f 3c
       0.08881375 0.06875885 0.085505314 0.013639939
000230 a0 36 ba 3d b1 fb 41 3d e5 7e a5 3e e3 e1 b1 bd
       0.0909245 0.047359172 0.32323375 -0.086856626
000240 ca c6 cd 3d ae cf 95 3d 61 8e fd 3c c2 72 11 3e
       0.10047682 0.073150024 0.03095168 0.14203933
000250 d1 62 c0 bd 8f 36 09 3e 31 1d aa 3d 53 80 7c 3d
       -0.09393848 0.13399719 0.08306349 0.061645817
000260 0c 79 a6 3b 2f df 53 3e 5f 13 15 bd 5f 1f 8a bd
       0.005080348 0.20690607 -0.036395427 -0.06744265
000270 7d a6 28 3e 60 8c 73 3d 51 fe 6a 3d 22 00 1f bd
       0.1646976 0.059460044 0.05737144 -0.038818486
000280 ae 86 86 3d 55 27 77 3e b8 a8 08 3e 44 32 b3 bd
       0.06568657 0.24136098 0.13345611 -0.08749822
000290 f6 16 80 be 59 5d 72 bc ef 02 e3 3d ce 39 ae 3c
       -0.25017518 -0.014792764 0.11084544 0.021267798
0002a0 99 b2 18 3d 1f 30 0f 3f 0a fb d7 3d 77 96 40 be
       0.0372797 0.559328 0.10545929 -0.18807398
0002b0 fb 98 8d 3b 81 45 00 be 35 03 cf 3e 01 40 b7 3d
       0.004321215 -0.12526514 0.40432134 0.08947755
0002c0 ec 71 7c bd 33 f0 ad bc 0d 78 a8 bd 0f 34 3b 3e
       -0.061632082 -0.0212327 -0.08226023 0.18281578
0002d0 d8 90 3f 3d b1 00 d1 3d 29 9e 90 3c df ca d5 3b
       0.046768993 0.1020521 0.017653542 0.0065244283
0002e0 21 96 0d 3d c4 aa 0a be 0f 41 57 3d 8f 66 61 3d
       0.034567002 -0.13541704 0.05255228 0.055029448
0002f0 36 cd 59 3d 37 4f fb bd 49 b5 2b be a6 08 c5 3d
       0.05317422 -0.122709684 -0.16768374 0.0962079
000300 cb 34 58 be d9 66 eb 3c 8c f4 30 bc 02 c6 71 3d
       -0.21113889 0.028735565 -0.010800492 0.059026726
000310 43 8c 6f bd 56 b5 f7 3d 35 b1 45 3c d9 d7 bc 3d
       -0.058483373 0.12095134 0.012066175 0.09220857
000320 64 9c 1f be cf 29 20 3f 91 53 cd 3e 06 d2 c9 3d
       -0.15587002 0.62563795 0.4010282 0.09854512
000330 f7 7a d4 3c 04 99 07 3e 3c 99 28 bd 11 0d d4 3d
       0.02593754 0.13241965 -0.04116176 0.10354055
000340 88 2e 92 bc b8 85 7f bc 62 8d 35 be 61 ad fb 3d
       -0.017844453 -0.015595846 -0.17729715 0.12288929
000350 71 23 b8 3e a1 bb f7 3d 98 12 bc 3d 80 81 09 3e
       0.3596454 0.12096334 0.09183234 0.13428307
000360 1e fe 2f be 2f 14 8c bb ea 11 93 bd 3c 4d 9e 3d
       -0.17186782 -0.004274867 -0.07181151 0.07729575
000370 3a 41 d9 3d 2a bb 73 3d 6f 0c 0b 3e e6 00 df 3e
       0.10608144 0.059504665 0.13578962 0.43555373
000380 d3 16 4f bd 3b 73 c0 bc 7c ff 08 be 13 fa 27 3d
       -0.050558876 -0.023492446 -0.1337871 0.041009974
000390 bd 6c 2e 3d 3f b8 12 be 2d fc 0a 3e 31 37 84 3d
       0.04258417 -0.14328097 0.1357276 0.064558394
0003a0 96 ee 62 3d 9d c4 11 3e 9d 66 6d 3d 25 f9 f4 3a
       0.055403315 0.14235158 0.057959188 0.0018689974
0003b0 39 cc f5 bd c4 29 80 3d 18 98 70 3d 40 ad 03 3e
       -0.12001843 0.06257966 0.058738798 0.12859058
0003c0 15 15 8f 3d 97 c8 99 3d 4a f1 9b 3d 9d ed 76 bd
       0.06986443 0.075089626 0.076143816 -0.0602852
0003d0 11 ba ff 3d e2 ca dc 3d 75 3d 5b 3d d9 4d 02 3d
       0.12486661 0.10780884 0.053525407 0.031812523
0003e0 8e 03 d3 3d 9b 15 44 bc 7d 84 d1 3d b8 14 bb bd
       0.103034124 -0.011968042 0.10230348 -0.09134811
0003f0 73 5c 7d bc 8f 88 28 3e fa f2 93 be 59 87 aa bd
       -0.015463936 0.16458343 -0.28896314 -0.08326597

output_layer.bias f4 [4]
000000 7f 10 52 3d 20 df ea 3c 2b 41 eb 3d 0e 17 ee 3d
       0.051285263 0.028670847 0.11487039 0.11625491
