results/navigation/run/trials/default/seed_22/checkpoints/model.588.tar (torch, 89831 bytes, 6 tensors)

input_layer.weight f4 [128, 37]
000000 3f 7a 9e 3d 3c 7e 22 3e 55 ee 3e 3e 24 ef 5a 3e
       0.0773816 0.15868467 0.18645604 0.21380287
000010 96 b1 00 3e e5 e2 8e 3e 97 6b a8 3d 54 74 c8 bc
       0.12567744 0.27907482 0.08223646 -0.024469532
000020 a2 d9 33 be 77 59 c3 3d 41 3e 56 be 45 0f d5 3d
       -0.17563489 0.095385484 -0.20922185 0.10403303
000030 8c 94 4b bd a3 f6 92 3e 48 22 db 3e 83 f2 1e 3e
       -0.049702212 0.28703794 0.42799592 0.15522198
000040 0c 3d aa 3c 28 0f 38 3e bf 26 3e 3e 45 6c 09 bc
       0.020781063 0.17974532 0.18569468 -0.00838763
000050 45 ac 16 3e e9 a0 bb bd 9f 5d 42 bd fd 7d b3 3c
       0.14714153 -0.091615506 -0.047452565 0.021910662
000060 34 fe cb bd 7a d9 70 bd 4d c6 f5 bb 87 97 eb 3c
       -0.09960595 -0.05880115 -0.007500446 0.028758777
000070 3c 10 96 3c c0 fe 81 3e 24 aa 0f 3e 59 8b 8a bd
       0.018318288 0.2538967 0.14029747 -0.0676486
000080 32 f0 13 3d 8b 9d 86 bd 60 30 90 be e0 50 16 3d
       0.03611774 -0.06573018 -0.28161907 0.036698222
000090 5c 5e a1 3b 21 ef 6f 3b d6 9d 65 bd 2e 2f 44 3e
       0.0049245786 0.0036611038 -0.056058727 0.19158623
0000a0 e7 96 e9 bd 99 e7 07 be 9a b5 16 be ee 73 1b 3e
       -0.114057355 -0.13271941 -0.14717713 0.15180942
0000b0 b0 e4 ac bd 9e 40 03 3e 3b 3d 6f 3e f4 7b de bd
       -0.08442056 0.12817618 0.23363201 -0.10863486
0000c0 f7 01 a9 ba a9 8f 71 bd 2e d1 73 3d b9 d1 c3 3d
       -0.0012894262 -0.058974896 0.05952566 0.09561486
0000d0 55 75 0d 3e 76 73 5b bd 0f 14 78 bd 89 e4 74 bd
       0.1381429 -0.05357691 -0.060566004 -0.05978826
0000e0 04 16 d1 bc fe 15 af bd 43 ff 6e bd 8b aa c8 bc
       -0.025523193 -0.085491166 -0.058348905 -0.024495384
0000f0 0c 9d 84 be b3 07 ac 3d a7 e5 b8 3b 8a cc a3 bd
       -0.25901067 0.08399906 0.005642611 -0.07997997
000100 e7 fe f3 3d 37 18 39 3e 39 61 c9 bc 44 db 28 3d
       0.11913853 0.18075643 -0.024582492 0.041224733
000110 bd 7b 93 3c 38 75 47 bd 8b f6 c0 3d 22 59 3b 3e
       0.018003339 -0.048695773 0.09422024 0.1829572
000120 59 9f a5 bd 2f 86 66 3d 6c d3 99 3d 38 01 d8 bd
       -0.08087034 0.05628031 0.07511029 -0.105471075
000130 0e 44 a5 3d 72 79 1d bd 8e 99 30 be 0b e1 f6 3d
       0.08069621 -0.038445897 -0.17246076 0.12054642
000140 f0 ac cd bd fa 80 27 bd 43 80 d0 bd 3a 44 04 bd
       -0.10042751 -0.040894486 -0.10180714 -0.03229163
000150 bb 95 fb 3d f8 0f 8f bd d8 93 80 3e c2 a3 75 bd
       0.12284418 -0.06985468 0.25112796 -0.059970625
000160 79 d4 ea bc 46 0c 0f 3e 0e f0 8e 3d 30 a5 10 3e
       -0.028665768 0.13969526 0.069793805 0.14125514
000170 33 3f 81 3c f0 51 82 bc 21 a5 11 3d f5 9e cc 3d
       0.015777206 -0.015908211 0.03555787 0.09991256
000180 e2 9a 37 3d 49 eb 21 bc ec 3d 56 bc 63 27 6f bd
       0.044825442 -0.0098827565 -0.013076287 -0.05838717
000190 83 18 6a 3e de 9d 91 3d 92 b5 13 be 68 20 d2 3d
       0.22860913 0.07110189 -0.14424732 0.10260087
0001a0 2c eb fc 3d 5e c3 59 bd 85 ce 51 3e 26 14 20 3d
       0.12349543 -0.053164832 0.20488937 0.039081715
0001b0 fd 5c 03 3d 4c d1 ab bb 3e 8d 08 bc 8a 43 7b 3d
       0.032071102 -0.005243456 -0.008334456 0.061343707
0001c0 b9 7b cd 3d 0b ba 4d 3d c2 f9 a3 bc 44 01 60 bd
       0.10033364 0.050226253 -0.020016555 -0.054688707
0001d0 43 8e a7 3e 79 85 d3 be 51 b3 b4 be 10 60 77 be
       0.32725725 -0.4131277 -0.35293058 -0.24157739
0001e0 91 fc 95 bf 7b 92 a4 3d ae dc dd 3d b8 c0 a8 3d
       -1.1717702 0.080357514 0.10833107 0.08239883
0001f0 7f ca 33 3d 2f 2c ca bd f7 01 37 3d bd aa 60 3d
       0.043894287 -0.098717086 0.04467961 0.05485033
000200 f1 cf 58 3d fb 12 0c 3d ff 2a be bb c9 19 a7 bb
       0.052932683 0.03419779 -0.0058034654 -0.0050995094
000210 b1 b7 1c bd e5 55 b3 bb fd 23 61 bb af d6 b2 3d
       -0.03826112 -0.005472886 -0.0034353726 0.08732354
000220 6a d5 1a bd 49 5c 49 bd f0 10 f5 bd 3c ec bb bd
       -0.037801184 -0.049160276 -0.11966121 -0.091759175
000230 54 0a 91 bd 37 eb 14 3d 3d 53 3c 3d 6b 18 30 3d
       -0.07082048 0.03635713 0.04597782 0.042992037
000240 c3 4a 4d 3c cf 9c af bb 58 fe 22 3c 89 99 aa 3a
       0.012530032 -0.005359269 0.009948336 0.0013015728
000250 39 53 4b bd ad b8 b2 3d 35 d1 07 3e cb 45 9e 3d
       -0.049639914 0.0872663 0.132634 0.07728156
000260 c0 b4 69 3e d8 0f a0 bd 4c fe c2 3c 86 54 02 3e
       0.22822857 -0.07815522 0.023802899 0.12727556
000270 41 4d 55 bd d7 95 0f be eb 63 47 3e c6 55 b5 3d
       -0.05207563 -0.14022003 0.1947171 0.088542506
000280 6b bc 83 3d 4b 3f 53 3c fe 26 38 be 99 cf 5a 3e
       0.06432422 0.012893508 -0.17983624 0.21368255
000290 5e 97 f2 3d df 3a 27 3e c0 3a fa bb da f3 18 be
       0.11845277 0.16331051 -0.007636398 -0.14936772
0002a0 16 f5 b0 3d ee 9f cd 3d f8 df fa 3d 7e 40 4a 3d
       0.086404964 0.1004027 0.1224975 0.04937791
0002b0 dc 70 8a 3d 95 7b 37 3c 89 5b 24 3e a5 ad 22 3e
       0.067598075 0.011198898 0.16050543 0.15886553
0002c0 7a 91 ab 3d 8f dc 1b be f5 d4 80 3e 15 1f cf 3d
       0.08377357 -0.15220855 0.25162473 0.1011335
0002d0 94 4f 96 3d 58 ff bd 3d 7e 16 4c be 36 05 8c 3d
       0.07339397 0.092772186 -0.19930455 0.068369314
0002e0 16 2f 04 3d c8 aa 09 3e d8 f6 7a be 44 81 b1 bd
       0.032271467 0.13444054 -0.24508226 -0.086672336
0002f0 9e 54 74 bd 5d 7f 84 3e 50 bc 30 3d 50 7f 38 be
       -0.05965101 0.2587842 0.04314834 -0.18017316
000300 08 62 0a be 32 76 83 3c 34 a4 d5 3d da 73 f4 3c
       -0.13513958 0.01604757 0.1043171 0.029840399
000310 aa 05 68 3e 33 21 6c 3d b5 84 74 bd 77 7b e0 3d
       0.2265841 0.05764885 -0.05969687 0.10961049
000320 de 8a ed bc df e0 ef bd c9 47 d0 3d 3c 16 9e 3b
       -0.028996881 -0.11712813 0.10169942 0.004824428
000330 19 5d a2 bb 15 4b 09 be 4a 78 dd 3d 1f 49 a8 bd
       -0.0049549458 -0.13407548 0.10813959 -0.08217072
000340 db 58 8f 3d ef 6d a6 bc 8a 4c f3 3d 1b 3e c1 bd
       0.0699937 -0.020316092 0.11879833 -0.09435674
000350 bb b7 38 bd be 0f 4a be 2d 97 00 3d 0f 2b 20 be
       -0.045097094 -0.19732568 0.031394172 -0.15641426
000360 5c 85 15 bd 88 6a f1 3d c5 e0 a7 bd fa ba 27 3d
       -0.036504135 0.11787897 -0.08197168 0.0409498
000370 69 21 f4 bd 60 f2 00 bd c0 03 12 3e 34 c7 bd bc
       -0.11920435 -0.031481147 0.14259243 -0.023166277
000380 6b 1a 9b bd b1 9e 08 3e e6 64 c8 3d 92 8f 0f 3e
       -0.07573398 0.13341786 0.0978487 0.14019611
000390 75 31 90 3d b3 32 37 3e d5 d3 9b bd ac ca 24 be
       0.07040683 0.17890434 -0.07608763 -0.16092938
0003a0 b6 a0 4a 3d 72 1f 35 3e 6c 44 42 3e 63 bd d4 3d
       0.049469672 0.17687777 0.18971413 0.10387685
0003b0 c6 b7 24 3c bc 0f 32 3e 2b 8a ff bc b3 be f0 3d
       0.010053581 0.17388815 -0.031193813 0.11755123
0003c0 7e 98 18 3e 30 99 20 3e 53 25 0c bd 5e a2 d4 3d
       0.14901921 0.15683436 -0.034215283 0.103825316
0003d0 9e df d7 bc 59 2a 4d 3d de 99 ab 3d da cc 94 bc
       -0.026351746 0.050089214 0.08378957 -0.018164087
0003e0 a0 02 15 bb 94 2d 0f 3e df 04 94 3e 04 f8 cb bc
       -0.002273716 0.1398223 0.28909966 -0.024898537
0003f0 6d 54 25 bd 96 da da 3c a6 90 2c 3d c1 13 19 3e
       -0.040363718 0.026715558 0.042130135 0.14948942

input_layer.bias f4 [128]
000000 47 72 e6 3b 9a 29 2b be f0 34 9d 3d c1 5c 24 3e
       0.007032666 -0.16715088 0.07676113 0.16051008
000010 dd 44 7f 3e 8a 85 c1 3d 12 f6 94 bc 36 a6 40 bd
       0.24928613 0.09449299 -0.018183742 -0.04703351
000020 4b e0 05 bd cb ad 0a be 81 0c 0e 3e 76 7a be bc
       -0.032684606 -0.1354286 0.13871957 -0.023251753
000030 7d 62 20 3a 29 2d 8b 3e b4 3d d3 bd f0 13 80 bb
       0.00061181915 0.27182892 -0.10314503 -0.0039086267
000040 6f 3f d9 3d 6c 55 27 3d 07 50 1b 3e ab 28 03 3e
       0.10607802 0.04085295 0.15167247 0.12808482
000050 ba da 0e be 0d 4f 01 be 27 71 90 3b ad 30 97 3d
       -0.13950625 -0.12627812 0.00440802 0.07382331
000060 62 ef 17 be b1 e7 df bc 9e 76 a9 bd b6 fe dd 3d
       -0.14837411 -0.027332159 -0.082745776 0.10839598
000070 a5 bc cd 3d b8 9c 95 3d cd 88 e6 bc 99 38 83 3e
       0.10045747 0.07305282 -0.028141404 0.25629118
000080 36 f4 36 3e dd 34 db bd a1 9c 12 bd 74 6c 31 be
       0.17866597 -0.10703442 -0.035793904 -0.17326528
000090 de bb ab bc 8b 8a a2 3d 74 61 90 3d 9e da 75 3e
       -0.020963605 0.07936581 0.07049838 0.24009177
0000a0 54 cb 85 3e 18 b5 a0 bd 06 3e e6 bd d1 75 fd 3d
       0.2613169 -0.07847041 -0.11242299 0.12375987
0000b0 df a1 3a ba 21 86 fe 3d 8f 9b a7 bd e8 fd df bc
       -0.00071194576 0.12427927 -0.08183967 -0.027342752
0000c0 66 d4 34 3d 35 61 16 bd d7 05 40 3d 84 f2 c8 3d
       0.04414787 -0.036713798 0.04688057 0.09811881
0000d0 55 18 ff bd ae f7 aa bd 17 33 12 3e 5b b8 55 bd
       -0.12455813 -0.083480224 0.14277302 -0.05217777
0000e0 42 4b 63 3e fe 19 75 3e 7c e8 a9 3d 6c c6 7e 3e
       0.22196677 0.23935696 0.08296296 0.2488038
0000f0 06 c1 cf bd 52 09 81 3d f7 c9 31 3d fc 27 5c bd
       -0.10144238 0.06300606 0.0434055 -0.05374907
000100 47 99 05 3e 24 fc b5 bd 0f 28 1b 3e fc e1 72 bc
       0.13046752 -0.08885983 0.15152 -0.014824387
000110 24 13 92 3e b6 77 e0 3d eb 97 e7 bd a0 1c 56 bd
       0.28530228 0.10960333 -0.11308273 -0.052273393
000120 9d 5a b8 3d 58 3e a6 bd 83 90 38 3d 14 5d a8 3d
       0.09001658 -0.0811736 0.045059692 0.08220878
000130 c8 30 26 bd 96 4f d2 bd 81 1a 4a bd c3 49 e6 bb
       -0.040573865 -0.10269086 -0.049341682 -0.007027836
000140 75 3f d5 bd 5a cb 2f bd 83 d9 a1 3c fb 52 25 bd
       -0.10412494 -0.04291854 0.019757038 -0.04036234
000150 36 c3 07 bd d4 65 28 3d f7 8d 82 3d 19 30 85 bb
       -0.033145152 0.041112736 0.06374734 -0.0040645716
000160 f3 f0 62 3c f3 26 4c 3e 96 9a 42 bc 24 6a f8 3d
       0.013851392 0.19936733 -0.0118776765 0.1212962
000170 f3 7a 0b 3e 67 e7 d0 bd b0 4f 31 be 72 c9 36 3e
       0.1362112 -0.102003865 -0.17315555 0.17850283
000180 43 62 70 3c 8a 50 81 3d c8 20 0d 3e a2 2c 80 3c
       0.014671865 0.0631419 0.13782036 0.015646283
000190 96 fd 1c 3e a9 8f 1b be e9 cf 71 bb dd ef fb 3d
       0.1533111 -0.15191521 -0.0036897606 0.1230161
0001a0 85 28 a4 bd 81 8b 13 3e 35 5f 76 bd b4 8d 35 3c
       -0.08015541 0.14408685 -0.06014939 0.011081148
0001b0 ed cc 9d bd 9a c2 3b 3c 38 7d d3 bc ec 90 d0 bc
       -0.07705102 0.011459971 -0.025816545 -0.02545973
0001c0 bd d4 0b 3e 52 46 13 3e e6 4e f6 3c 26 45 ad 3c
       0.13655372 0.14382294 0.030066919 0.021151137
0001d0 09 80 6a 3e 73 9e 43 3e 32 8b 44 be cb c7 2e 3e
       0.22900404 0.19103412 -0.19193724 0.17068402
0001e0 2c 7f 2c bb 4f ba 7f 3e 98 e1 3a bd 8b 05 9b 3d
       -0.0026320918 0.24973415 -0.0456253 0.075694166
0001f0 a0 e3 be 3d 17 c0 39 b8 c5 24 bc 3d 95 94 19 3e
       0.0932076 -4.4286335e-05 0.09186701 0.14998086

hidden_layers.0.weight f4 [128, 128]
000000 83 fc 49 bd ad c4 33 bd 61 8a 5a bb ce 96 aa be
       -0.04931308 -0.043888737 -0.003334664 -0.3331818
000010 72 bd be 3d b9 97 55 3d f8 b7 12 bd 69 b6 de 3c
       0.093134776 0.052146647 -0.035819978 0.02718659
000020 1c 7b 9e bc a4 6b 6f bc 86 f8 34 3d 70 f9 75 bd
       -0.019345812 -0.014613066 0.044182323 -0.060052335
000030 4e bd 12 bc ba 40 d4 bc 79 8f 04 39 b1 0f 9b bd
       -0.008956267 -0.02590977 0.00012641949 -0.07571352
000040 fa d8 24 3b 18 07 40 3d 6f 11 4c 3d 1e 37 8e bd
       0.0025153742 0.046881765 0.049821313 -0.069441065
000050 81 83 a5 3d ab ba a5 bd 4d ae 40 bc a6 d4 59 bc
       0.08081723 -0.08092245 -0.011760307 -0.013295328
000060 de 9e 9f bd 4c 9d a3 3e 5f b7 24 bd d8 06 88 bd
       -0.077939734 0.31955945 -0.04021394 -0.0664193
000070 3d fb 13 be 9c 23 b6 bd b4 95 e6 3c 79 2e 13 3d
       -0.14451309 -0.08893511 0.028147556 0.03593299
000080 64 73 52 3b c4 18 8e 3d 9c ee 99 3c 63 3a fd bc
       0.0032112235 0.069383174 0.018790536 -0.03091163
000090 f4 5a 85 be 3c ff 29 3c 6e 65 cf bd 04 8c 92 3d
       -0.26045954 0.010375794 -0.10126768 0.07155612
0000a0 1d 4f ce 3c 9e 03 7a be 04 d9 48 3d f0 f5 21 3d
       0.025184209 -0.24415442 0.049035087 0.039541185
0000b0 b1 0f cb 3b 16 f1 22 3d b7 71 09 be 5c e6 48 3c
       0.006196939 0.0397807 -0.13422285 0.012261953
0000c0 a4 4a 8b 3d 56 a9 a5 3c 23 a0 10 3d 59 17 72 3d
       0.06801346 0.020222347 0.03530897 0.059104297
0000d0 51 09 fa 3b 5f 65 6c 3c 1c a4 e3 bc 86 4c bb bd
       0.007630505 0.014428466 -0.027788214 -0.09145455
0000e0 63 91 b4 3d 8e ff 10 bd de d5 c2 3c a4 d2 96 bc
       0.08816793 -0.035399966 0.02378362 -0.018410988
0000f0 c3 17 0f 3c 44 be a6 ba f0 f9 92 3c b0 a1 81 3d
       0.008733693 -0.0012721498 0.017941445 0.063296676
000100 5d f1 58 bd ea 84 af 3b f1 d9 04 bb 52 9b 41 3d
       -0.052964557 0.0053564208 -0.0020271505 0.047267266
000110 7b f9 18 3c 6d 13 08 3d 19 b4 a1 bd 28 fb 8e bc
       0.0093368245 0.03322165 -0.07895679 -0.017453745
000120 dc 34 b9 3c 4d f0 2f 3d 8b 69 73 3d 32 8d 6c bd
       0.022608213 0.042953778 0.059426825 -0.05775184
000130 56 30 e7 3c b4 2f 74 3c e0 93 d1 3d d5 e8 7d 3d
       0.02822129 0.014903951 0.10233283 0.061989624
000140 3b 70 74 3d b4 18 5a bd 74 05 ed 3c 1d 91 c0 3c
       0.059677344 -0.053246215 0.028933264 0.023506695
000150 39 39 17 bd 60 8e b5 3d f4 b8 ae bd 48 6c 95 bd
       -0.036919806 0.088650465 -0.08531371 -0.07296044
000160 78 7a 96 bc af b9 63 3d 3f b4 20 3a d8 60 85 3d
       -0.018368945 0.055597004 0.00061303744 0.06512612
000170 c0 6f e6 bc 58 15 e8 bd c8 26 05 3e 37 fd b1 bc
       -0.028129458 -0.11332196 0.13003075 -0.021727188
000180 15 29 91 bd ae eb 10 be 50 eb 45 3b a6 d8 95 bf
       -0.07087914 -0.14152405 0.0030200072 -1.1706741
000190 1b 76 75 3c b2 f5 58 bc b3 5f b7 3d 49 66 65 3c
       0.014981772 -0.013242172 0.089538 0.014001437
0001a0 a1 88 85 bf 52 9a 6f 3d 81 dd 6b 3d 47 65 0e 3d
       -1.0432321 0.05849678 0.05758429 0.034764554
0001b0 01 be 16 be 02 2a 8c 3d 9b 5c 9e bd d5 1f e5 be
       -0.14720918 0.0684395 -0.07732507 -0.44750848
0001c0 61 b5 3e 3b 80 b9 11 bd 90 09 b0 bc 24 ab 81 bd
       0.002909981 -0.035577297 -0.021488935 -0.063314706
0001d0 ec d9 99 3c 31 88 ae 3d 0e d9 f4 3d 4b 6d 14 3d
       0.018780671 0.0852207 0.119554624 0.036237042
0001e0 ba 59 fd bc dc 87 8c bd a5 e8 5b 3d f5 8f a7 bd
       -0.030926574 -0.068618506 0.053688664 -0.081817545
0001f0 75 9f 77 ba 47 98 8b bd 94 91 9a 3d 88 82 2c bd
       -0.0009446063 -0.06816154 0.07547298 -0.04211667
000200 f1 5a 06 3e 0a 4e 0c 3c fc eb 4b bd 8c 4d e4 3c
       0.13120629 0.008563528 -0.0497856 0.027869008
000210 d1 b0 72 3c 83 eb 09 bd 63 14 62 3c 27 5a 97 bc
       0.014812664 -0.033671867 0.013798806 -0.018475605
000220 ce 4d 31 be 06 c3 ac be 44 91 d2 bd e9 37 c9 3b
       -0.17314836 -0.3374254 -0.102816135 0.006140698
000230 8c 53 b4 bd 84 c1 37 bd c3 bc 2a 3d e0 10 78 bd
       -0.08804998 -0.044862285 0.041683923 -0.06056297
000240 1c b7 20 bd 6c 28 b4 bd ee f7 a9 bc 8e b6 11 bd
       -0.039237127 -0.08796772 -0.020748105 -0.03557449
000250 39 54 1d be 03 d0 d5 bd 51 dc 14 3e 0c c0 bd 3d
       -0.1536416 -0.10440066 0.14537169 0.09265146
000260 8d 9a ee bc 8a f7 60 3d df 6a 99 3d ca 6b 93 bc
       -0.02912643 0.05492357 0.07491087 -0.017995734
000270 24 18 17 3c c8 83 39 3c b1 b5 d6 3d e3 39 a2 bc
       0.009222064 0.011322923 0.10483874 -0.019802993
000280 71 da 6c 3d 65 b3 36 3c fb 55 18 3d 9c ff 97 bb
       0.05782551 0.011151169 0.037191372 -0.0046386253
000290 f2 6e 2e be c2 04 01 bd 9c ce ab 3d 85 ad b0 bd
       -0.1703451 -0.031498678 0.08389017 -0.08626846
0002a0 60 ea 62 3d 2c 0c aa 3d f0 f9 db bd 5a 14 0b be
       0.0553993 0.08303103 -0.10741031 -0.13581982
0002b0 43 b4 db 3d 93 7f 3d bc 71 1b 2c bc 8f 4e 82 bd
       0.107277416 -0.011566061 -0.010504589 -0.0636264
0002c0 d9 6d 67 bd 05 c3 31 3d 67 05 1c bc db fc 1a 3e
       -0.056501243 0.043398876 -0.009522772 0.15135519
0002d0 51 38 cc bc 82 46 4e 3d 44 c9 9d bd 1c c2 85 3d
       -0.024929198 0.05036021 -0.07704404 0.06531164
0002e0 8d ad 93 3d 31 3f 1c bd 50 9e 7a bd 56 9d a7 3c
       0.072108366 -0.0381462 -0.061186135 0.020460766
0002f0 d9 2b 6c bc 57 9a 8e 3c a0 c6 ce bd d9 d3 0d bc
       -0.014414751 0.01740758 -0.100964785 -0.008656465
000300 a0 b1 86 3c aa 1d 28 be b6 b9 82 3d 37 49 ac 3c
       0.01644212 -0.16417566 0.06383078 0.021031005
000310 2c f1 fe bc 6c a9 74 bc 5a 57 79 bd 1e fd ef 3d
       -0.03112086 -0.014932971 -0.06087432 0.117182
000320 ba b1 86 3d 99 18 86 3d ce dd 52 3d cf 0e 27 3e
       0.065768674 0.065476604 0.05148106 0.16314243
000330 21 a9 1e 3e 00 fb 8e bd 66 25 fb bc a9 54 ca 3a
       0.15494205 -0.06981468 -0.030657481 0.0015436608
000340 16 b9 c0 3e 13 7e f5 3d e6 03 aa bd 68 3a 10 3d
       0.3764121 0.119869374 -0.08301525 0.03521195
000350 9d 9a c6 be 89 a8 93 3a 7f 3a c4 3d a7 05 83 3c
       -0.38789836 0.0011265437 0.0958147 0.015993906
000360 99 9f 80 3d 20 82 9e bd 02 37 e9 3d 9f 02 80 3d
       0.06280441 -0.07739663 0.11387445 0.062505
000370 b4 c8 11 bc 63 c2 5e 3e 61 a7 18 be bd 29 6a 3d
       -0.008897949 0.2175384 -0.149076 0.05716871
000380 94 e4 d8 bd 93 5a 09 bd 0c 1c 83 bc 07 b5 77 3c
       -0.10590473 -0.033533644 -0.016004585 0.015118844
000390 61 d6 99 3c 2b 72 87 be 3d 31 22 3d c1 3e 96 bd
       0.018778982 -0.2645429 0.03959774 -0.07336188
0003a0 d8 85 25 be c7 5d 5a bc dd 14 09 be f4 76 ee bd
       -0.16164339 -0.013328022 -0.13386865 -0.11643782
0003b0 04 47 01 be fd bb 97 3d e0 49 37 3d 2c c0 fd 3c
       -0.12624747 0.07408903 0.044748187 0.030975424
0003c0 0a b8 96 bd 2d 7d 16 bd 85 07 b7 3d 30 a9 11 3e
       -0.073593214 -0.03674047 0.08936981 0.14224696
0003d0 97 90 11 3c eb e0 94 3b 99 07 b3 bc 35 03 83 3c
       0.008884571 0.004543414 -0.021854209 0.01599274
0003e0 72 53 38 3d 54 1c 63 3b ab c0 39 bd 43 f7 1c 3b
       0.045001455 0.0034654336 -0.045349758 0.002395109
0003f0 38 85 f5 3c 0f 42 a6 bc 9e 3a 83 3d e0 58 04 3d
       0.02997075 -0.020295171 0.06407665 0.03231132

hidden_layers.0.bias f4 [128]
000000 a5 65 cc 3d 4d 66 1f bd 8a 93 01 3d b5 f2 73 3d
       0.09980325 -0.03891592 0.031634845 0.059557635
000010 48 bb 8b 3c f7 ab d7 3d 17 85 25 3e 39 2d e3 bc
       0.017057076 0.105308466 0.16164051 -0.027731525
000020 79 c3 de 3d bb 71 06 3d 4f 9f 87 3d da 88 35 3d
       0.10877127 0.032823306 0.066221826 0.044319965
000030 9e 08 6d 3d 28 35 05 3e 38 ad 57 bb a6 db 89 bd
       0.057869546 0.13008559 -0.0032909643 -0.06731348
000040 5c 76 c8 3c c0 1c a8 3b 7e ff 2c bd dd 70 0d 3e
       0.0244705 0.0051303804 -0.042235844 0.13812585
000050 e9 ba 40 bb 1c 59 4c 3e 50 b0 15 3c 5a 32 1d 3e
       -0.0029408282 0.19955868 0.009136274 0.15351239
000060 55 64 5a 3d b9 2b 6b 3c ab 2a 58 3c c9 49 87 bd
       0.05331834 0.014353686 0.013193767 -0.0660587
000070 3a ff ff 3d f7 d7 00 3e b1 fc 20 3e b6 dd a0 3c
       0.124998525 0.12582384 0.15721394 0.01963697
000080 36 e5 fa 3d 50 c6 68 3d 69 c2 a8 bc 11 d9 0d bd
       0.1225075 0.05682975 -0.020600514 -0.03463084
000090 04 69 79 bc fc 20 f9 3d f0 f3 d8 3d fd 07 b2 3d
       -0.015222792 0.121644944 0.105934024 0.0869293
0000a0 f0 46 61 3c cf fa 31 3d d0 ae c9 3d 7f dc 3c 3c
       0.013749823 0.04345208 0.09847796 0.01152718
0000b0 3d d3 94 3d 1e c9 f9 3c e1 61 cf 3b 25 da 65 3c
       0.07266853 0.030491408 0.0063288067 0.0140290605
0000c0 89 b2 1d bc 52 26 90 3c 45 27 c8 3b c1 84 8f 3d
       -0.009625086 0.017596398 0.006108197 0.07007743
0000d0 76 ac 28 3d 9c 8a e4 3d 81 bc 39 3c 67 55 8f 3d
       0.041180097 0.1115925 0.011336447 0.06998711
0000e0 29 82 c4 3d fb 3a fe bc 33 9d 23 bd 54 cd bb 3d
       0.095951386 -0.031033983 -0.03994484 0.091700226
0000f0 98 b3 a4 bd 45 bf 67 3d 9b 9a 1f bd 05 25 4d 3d
       -0.08042067 0.056578893 -0.038965803 0.050084133
000100 06 cb f2 bc e1 35 f2 bd fc a4 87 3d 0b 2b 8e 3d
       -0.029637825 -0.11826683 0.06623265 0.069418035
000110 2a ed 76 bd 8c d4 b7 3c 0e c4 ca 3c be 9f bb bd
       -0.06028477 0.022440217 0.02475169 -0.09161328
000120 1a 33 9b bd 35 54 df 3b 2b 95 87 3d aa b0 91 bd
       -0.07578106 0.006815458 0.066202484 -0.07113774
000130 84 6e 04 bd 5a 11 91 bd 61 8c ba 3a b0 ca fe 3d
       -0.03233196 -0.07083388 0.001423251 0.12441003
000140 3d 90 3b 3c c1 2c 2e bd dc 50 d6 bd 07 02 5f bc
       0.011447963 -0.04252315 -0.104646415 -0.013611323
000150 1e 2b c2 3c fe 23 46 3d 96 82 a6 3c 90 85 73 3c
       0.0237022 0.04837417 0.02032594 0.014863387
000160 de 19 c5 bd a3 47 e6 3c 52 e3 ae bd 3f a6 0f 3e
       -0.096240744 0.02811033 -0.08539452 0.14028262
000170 31 de 23 3e ba 48 86 bd 51 da 37 bd 4b 3f e6 3c
       0.16002728 -0.0655684 -0.044885937 0.028106352
000180 c0 fd 1a bd e1 33 d9 bd 1b 18 4a bd 12 a9 32 3e
       -0.03783965 -0.10605598 -0.049339395 0.17447308
000190 4c 41 b2 3d f3 0d 86 bd 8a b8 2f 3d 57 5c bd 3d
       0.08703861 -0.06545629 0.0429006 0.09246128
0001a0 48 7e 58 bd 38 5b 9b 3d 33 c3 cc 3c 40 e0 e2 bc
       -0.052854806 0.07585758 0.024995422 -0.027694821
0001b0 22 be 20 bd 0c 68 c2 3d d8 72 12 bd 6b 29 33 3e
       -0.039243825 0.094925016 -0.035754055 0.17496268
0001c0 7b 11 c3 3d 74 e8 47 3d 1f c4 ee 3d 48 f6 bb bd
       0.095248185 0.04880567 0.11658501 -0.09177834
0001d0 c7 3d 53 3e 13 80 f2 3d 4c 1f 04 3d 50 14 d6 bd
       0.20629035 0.118408345 0.03225641 -0.10453093
0001e0 bd 9e 0c 3e 98 18 bc bc 77 3a db 3d 2c ef a3 bc
       0.13732429 -0.022960946 0.10704511 -0.020011507
0001f0 9a 8c 68 bd 66 1c 4d 3b 04 11 f8 bb 64 2e ed bc
       -0.056774713 0.0031297444 -0.007570388 -0.028952785

output_layer.weight f4 [4, 128]
000000 0a c9 80 be 94 35 35 3c 37 34 55 3d 86 b0 e4 bd
       -0.2515338 0.011060137 0.05205175 -0.11166482
000010 50 f3 c6 3e 5f 1e 79 3d f9 09 ce 3d 64 f7 7b 3e
       0.38857508 0.06081998 0.10060496 0.24606091
000020 df 96 82 3d 5d 38 91 bd f8 6f 04 3e b4 af a4 3c
       0.063764326 -0.070908286 0.12933338 0.020103313
000030 1e 37 9f 3c d0 d9 4c 3b 4e d6 2d 3f a4 ff 40 3d
       0.019435462 0.0031257756 0.6790513 0.047118798
000040 2b a1 07 3d b4 c2 bd bb 51 70 dc bd 62 cc 19 3e
       0.033112686 -0.0057910327 -0.1076361 0.15019372
000050 ef b0 c9 bc b3 87 b1 3c 30 0d 46 3c bf c4 f3 3d
       -0.024620501 0.021671152 0.012088105 0.11902761
000060 c6 da b3 3d 45 ec 69 3e 6c 3f 3f bd 45 aa 80 bc
       0.08781962 0.22844036 -0.046691343 -0.01570619
000070 ad 8b 1c 3e 18 fc d1 3d 7b df cb 3d 62 ec 81 bd
       0.15287657 0.10253161 0.09954735 -0.063439146
000080 6c 9d 4b 3d 5a ac 48 3e 7d a6 c6 3d dc 1a 21 bd
       0.049710676 0.19596997 0.09699724 -0.039332256
000090 5a 73 12 bb e2 0c e4 3d 65 72 10 3e 1c a4 71 3d
       -0.0022346587 0.1113527 0.14106138 0.058994398
0000a0 cd 4b 01 3c 15 17 20 3f 33 54 b2 3d e4 dc 03 3b
       0.0078916075 0.6253522 0.08707466 0.0020120675
0000b0 e8 3a fc 3c 4d dd cb bd 52 e1 0c 3f 41 c5 4e 3e
       0.030789807 -0.09954319 0.5503131 0.20192434
0000c0 b9 98 a0 3c c3 1c f7 3d 56 72 9c bd 7b 31 9b 3e
       0.019604074 0.12066033 -0.07638995 0.30311188
0000d0 fa 02 e0 3d b3 36 cc 3d 91 f9 c0 3c c6 ab 02 3d
       0.10938068 0.099713705 0.023556503 0.031902097
0000e0 81 5d 45 3d 25 5d 8d be 19 2d 0d 3c 93 d0 b9 3b
       0.048184875 -0.27610126 0.008616709 0.005670616
0000f0 15 fc 9f bd 60 b7 90 bd 6b cf 8d be fa e8 fb bc
       -0.07811753 -0.07066226 -0.2769731 -0.03075074
000100 e3 a1 b4 be 01 c2 28 bb b3 e0 99 3d 45 8d d1 3d
       -0.3527976 -0.00257504 0.07513561 0.10232023
000110 fa 96 53 be 45 b7 d5 3d 34 31 e3 bc 5d 46 a2 bc
       -0.20663062 0.104353465 -0.027733423 -0.019808942
000120 e7 e2 5f be 75 ab da 3e d8 bb be 3e 6f 49 3e be
       -0.218639 0.42708936 0.37252688 -0.185827
000130 25 c0 71 3d 8d 19 f4 3d c3 34 17 bf 05 55 b0 3d
       0.059021134 0.11918936 -0.59064883 0.08609966
000140 f0 20 8b be 33 8e 27 3d 68 fe 89 bd dd bd ad 3c
       -0.27173567 0.040907096 -0.06737977 0.021208698
000150 79 d0 d3 3e 97 55 a1 3b 2b fb 86 3d ed 2e 9e 3e
       0.4136999 0.004923533 0.06590875 0.30895177
000160 d5 c6 70 be 06 79 4f 3d fa 8e 3c bd 28 c3 56 3d
       -0.23513348 0.050652526 -0.04603479 0.05243221
000170 b4 4e 5c 3d cc 2b 06 3d c2 b6 02 3e ed fc be 3e
       0.053785995 0.03275661 0.12765029 0.37302342
000180 23 fa 06 3c d7 db 38 bd e1 b1 0d bd bd b3 e8 3d
       0.008238348 -0.04513153 -0.034593467 0.11362407
000190 62 d2 62 3c c6 33 bd 3d 7f ab f5 3d cf ec 26 3a
       0.0138441045 0.092383906 0.11995601 0.00063676847
0001a0 6a 35 81 3d e0 ae 54 3e 8f 15 43 3d c4 be e9 bc
       0.06309016 0.20769835 0.04762798 -0.028533347
0001b0 be a4 9f bd c1 e4 08 bc dd c3 66 3d a0 a1 ab 3d
       -0.07795094 -0.00835532 0.056339134 0.08380437
0001c0 fe 8f 07 3e c4 50 a3 3d 3c ea 00 3e c9 10 05 bc
       0.13238522 0.07974389 0.12589353 -0.008121678
0001d0 73 72 e2 3d eb a1 d1 3d d7 2a 92 3d ee 59 c2 bd
       0.11056986 0.102359615 0.07137077 -0.09489809
0001e0 1c f1 58 3d 7b 09 0c be e7 a4 b7 3d 7a ad 80 bd
       0.052964315 -0.13675492 0.089669995 -0.06283088
0001f0 96 93 1e bd d1 94 05 bd ee d6 75 be ce db 05 bd
       -0.038714968 -0.032612626 -0.2400777 -0.032680325
000200 66 ae 7f bd cc 89 16 3c 08 63 a1 bc 61 34 1e be
       -0.06242218 0.009188127 -0.019700542 -0.15449668
000210 a7 d4 48 3f f0 81 9e bc d8 cd f4 3c 8a 69 3f 3e
       0.7844948 -0.019349068 0.02988331 0.18692604
000220 05 57 af 3d a5 83 ab bb 91 89 ae 3d a8 8d 68 3c
       0.085615195 -0.005234199 0.085223325 0.01419393
000230 5b 12 b6 3d b6 2f 23 3d 03 27 02 3f b4 f7 9b bd
       0.0889022 0.039840423 0.5084078 -0.07615605
000240 bd 79 c3 3d a7 74 a8 3d b0 e3 0a 3c 97 e9 11 3e
       0.09544704 0.08225375 0.0084771365 0.14249264
000250 ef d7 25 be 39 08 06 3e 9b 7a e7 3d f5 9d 7b 3d
       -0.16195653 0.13089074 0.11302682 0.061429936
000260 d7 d2 92 3c 6b 93 41 3e c3 7e 41 be 16 99 08 be
       0.017922802 0.18903892 -0.18896012 -0.13339648
000270 1d aa 27 3e a9 56 74 3d a1 84 86 3d 55 20 37 bd
       0.16373487 0.059652958 0.06568266 -0.04470857
000280 bd bf 8a 3d ce cb 8b 3e 82 22 05 3e 41 55 ce bd
       0.067748524 0.27303928 0.13001445 -0.10074855
000290 f0 4a a9 be de 1e 00 bc 2c f4 e9 3d 36 8f 91 3c
       -0.33064985 -0.007819859 0.11423525 0.017768484
0002a0 f5 c5 d9 3c ae bb 27 3f e9 9e 9f 3d 3c d4 2d be
       0.026583651 0.6552075 0.077939816 -0.16975492
0002b0 5f cf 13 3b 41 63 00 be b7 30 21 3f fa 4a 08 3e
       0.0022554023 -0.12537862 0.6296496 0.13309851
0002c0 11 30 bc 3b d0 d0 15 3d b8 dc 2f bd e3 6a 8e 3e
       0.0057430346 0.036576092 -0.042935103 0.27815923
0002d0 44 bb 49 3d c2 51 cb 3d 82 14 a9 3c 29 8f 87 3d
       0.049250856 0.099277034 0.020639662 0.066191025
0002e0 3c 75 76 3d 3d 60 32 be c6 ae 20 bc 81 8d fa bb
       0.060170397 -0.17419524 -0.009807294 -0.007646263
0002f0 56 24 0d 3c 80 3a b1 bd 96 14 a2 be 0d d2 13 3e
       0.00861462 -0.08653736 -0.3165633 0.14435597
000300 a5 fd 67 be 1e 71 24 3d c5 ed da 3c 5c ec 23 3e
       -0.22655351 0.04014694 0.026724705 0.16008133
000310 a3 bb 00 be ff d5 fb 3d 94 9f 7a 3c 98 a3 b3 3d
       -0.12571578 0.12296676 0.015296835 0.087714374
000320 3d ba 9c be 5c 93 57 3f 86 9c 00 3f af 15 a7 bd
       -0.3061084 0.8420923 0.50238836 -0.08158433
000330 9e c6 81 3c 05 37 6e 3e 46 be b8 ba 95 a2 cc 3d
       0.015841778 0.23263176 -0.0014094792 0.099919476
000340 bc 84 5b bd d6 18 c6 3b 4d 6c 01 be 53 48 1b 3e
       -0.053593382 0.006045441 -0.1263897 0.15164308
000350 a3 6c bc 3e b9 0d eb 3d b3 4d 48 3d 85 e3 3d 3e
       0.36801633 0.11477227 0.048902225 0.18543823
000360 fd 2d 76 be f9 65 f0 bb 8c 1c a9 bd 76 ec 9a 3d
       -0.2404098 -0.007336375 -0.08257398 0.075646326
000370 d7 67 dd 3d 2a bb 73 3d 06 f1 cf 3d 14 ae ed 3e
       0.108108215 0.059504665 0.101533934 0.46421874
000380 e9 51 46 bd d6 de 19 bd 29 85 f2 bd 5c a9 17 3d
       -0.04841796 -0.03756603 -0.118418045 0.037026748
000390 25 7c 24 3d 74 d9 a5 bd 83 0d 0d 3e b1 c2 6e 3d
       0.040157456 -0.080981165 0.13774686 0.05829114
0003a0 37 b0 5a 3d 3b 8b af 3d 35 7c 8b 3d 4b 3b 98 3d
       0.053390708 0.08571478 0.068108 0.07433184
0003b0 cd 53 10 be ba f3 66 3d 48 7a a9 3d ea 2a 04 3e
       -0.14094467 0.05638478 0.082752764 0.12906995
0003c0 e6 42 8d 3d 63 41 96 3d b8 67 94 3d c4 f6 91 bd
       0.068975255 0.0733669 0.07246345 -0.07127145
0003d0 b8 1d 02 3e 90 50 da 3d 4e 5f 51 3d d6 db 3e bd
       0.1270665 0.10659897 0.05111628 -0.04659637
0003e0 53 ab d9 3d f1 b9 74 bd f3 04 db 3d bf 5b c0 bd
       0.106283806 -0.05974764 0.10694303 -0.09392499
0003f0 78 bd 90 3c a1 06 cd 3e a7 2c 95 be 10 6f 45 bd
       0.01766847 0.4004412 -0.2913563 -0.04820162

output_layer.bias f4 [4]
000000 5e 95 80 3d 0c 68 0a 3d ba cd f4 3d 65 c8 00 3e
       0.062784895 0.033790633 0.11953302 0.12576444
