best_model_and_weights_and_plot/model.784.weights.pt (torch, 89895 bytes, 6 tensors)

input_layer.weight f4 [128, 37]
0.054266468 0.15663056 0.18398196 0.2180884 0.11783458 0.2790139 0.117478915 -0.07030273
-0.20077643 0.10376317 -0.2212238 0.107317746 -0.06532896 0.29316357 0.41837284 0.13192762
0.043695237 0.1686333 0.17537874 -0.007859125 0.14303185 -0.12378556 -0.025445636 0.00875002
-0.13636501 -0.07548478 -0.00052528107 0.010669688 0.03373268 0.269937 0.13444093 -0.090720534
0.04480038 -0.07384431 -0.28321928 0.012329892 -0.0049179285 -0.0041569127 -0.066181526 0.1695444
-0.07737765 -0.18046415 -0.14968927 0.13696553 -0.090381145 0.13008817 0.2956861 -0.06356393
-0.041570112 -0.07166462 0.03782909 0.045141324 0.14914648 -0.07165796 -0.055740405 -0.09661713
0.020854093 -0.1380549 -0.022924172 -0.041583497 -0.2451582 0.071884386 -0.048624124 -0.09793322
0.13826142 0.23332246 -0.036981333 0.008995369 0.035045113 -0.04378117 0.088641025 0.16906156
-0.06917535 0.052510943 0.09311687 -0.12757434 0.050958738 -0.009216031 -0.21331397 0.07717473
-0.079581656 -0.001444064 -0.12685071 -0.029438414 0.095044516 -0.04728054 0.22777976 -0.033076506
0.005555075 0.13311468 0.036436714 0.131861 0.0755668 -0.0497971 0.0025913052 0.107596755
0.07134141 -0.03078933 0.018537885 -0.07292759 0.18228087 0.07603884 -0.054397196 0.06260844
0.11354782 -0.067602046 0.23516767 0.017636584 0.038750134 0.038292814 -0.014529768 0.07712053
0.064585894 0.061773937 0.0027357806 -0.051882613 0.3345858 -0.43489167 -0.32586935 -0.25242826
-1.253101 0.06527137 0.13715501 0.08556009 0.031638324 -0.07461467 0.028680071 0.061887365
0.049850352 0.07216175 -0.013342328 0.0024574744 -0.031483147 -0.008470217 -0.012793861 0.06776873
-0.03096359 -0.0702166 -0.10809859 -0.08303139 -0.055979345 0.03507034 0.041978657 0.0143200215
0.07121385 -0.019670155 0.004236454 0.002573417 -0.04161621 0.09453074 0.12951858 0.06872503
0.24095473 -0.08684086 0.04342501 0.12978788 -0.05013449 -0.13472375 0.18774568 0.092267595
0.06884036 0.023073591 -0.17141731 0.22394274 0.10484153 0.17229657 -0.008459139 -0.14158061
0.078448705 0.11043043 0.123489305 0.059832577 0.061534684 0.009310017 0.17058714 0.16940154
0.06971953 -0.16362241 0.25375062 0.10704824 0.07079563 0.09428319 -0.2090409 0.056794357
0.0275431 0.09968248 -0.19534683 -0.051284667 -0.054138754 0.26372096 0.032956034 -0.24852039
-0.031124575 -0.0029639122 0.029775381 0.034796286 0.26613525 0.04427382 -0.09527753 0.04969387
-0.06972966 -0.022872835 0.088200524 0.023154505 -0.0396429 -0.15969773 0.17516942 -0.12679064
0.07141379 -0.028843135 0.10145043 -0.03516339 -0.03967761 -0.19176626 0.07789221 -0.31246984
5.322784e-05 0.17048469 0.015209316 0.06057173 -0.076895565 -0.017314978 0.14415257 -0.02467717
-0.0860989 0.13947703 0.083022304 0.14687538 0.07967308 0.14680979 -0.080619425 -0.18559095
0.04300839 0.17104657 0.20369506 0.09124819 0.009709778 0.18525459 -0.033870764 0.10042768
0.14746378 0.13427602 -0.030450052 0.07175911 -0.016437976 0.066546716 0.0905803 -0.018146517
-0.008892476 0.14063928 0.2857979 -0.016863324 -0.045131657 0.014885985 0.055920996 0.14625642
00000000: 8446 5e3d c363 203e c465 3c3e 9152 5f3e
00000010: 4253 f13d e9da 8e3e c998 f03d e1fa 8fbd
00000020: 5698 4dbe c981 d43d 7e88 62be 68c9 db3d
00000030: 31cb 85bd 8919 963e f734 d63e 0918 073e
00000040: c7f9 323d 35ae 2c3e 7c96 333e 8fc3 00bc
00000050: f176 123e 4983 fdbd 5e73 d0bc 3e5c 0f3c
00000060: 45a3 0bbe c497 9abd 04b3 09ba eacf 2e3c
00000070: 472b 0a3d 2f35 8a3e e2aa 093e b0cb b9bd
00000080: 9a80 373d b03b 97bd 1e02 91be 5103 4a3c
00000090: 9326 a1bb b636 88bb 2e8a 87bd 0c9d 2d3e
000000a0: 2c78 9ebd 98cb 38be 2548 19be b140 0c3e
000000b0: c019 b9bd d535 053e 2b64 973e ce2d 82bd
000000c0: 6c45 2abd e6c4 92bd adf2 1a3d 1ce6 383d
000000d0: dbb9 183e 69c1 92bd 0d50 64bd 34df c5bd
000000e0: 34d6 aa3c 445e 0dbe 79cb bbbc 7553 2abd
000000f0: c00a 7bbe 1f38 933d 172a 47bd 3691 c8bd
00000100: 6794 0d3e 15ec 6e3e bd79 17bd 5061 133c
00000110: 778b 0f3d e253 33bd 6d89 b53d 791e 2d3e
00000120: ceab 8dbd b715 573d 0fb4 be3d d9a2 02be
00000130: 1cba 503d d6fe 16bc fa6e 5abe c90d 9e3d
00000140: b5fb a2bd bf46 bdba 27e5 01be d428 f1bc
00000150: b3a6 c23d 3da9 41bd 193f 693e 3b7b 07bd
00000160: 5907 b63b 374f 083e aa3e 153d 9206 073e
00000170: c4c2 9a3d 0bf8 4bbd e3d2 293b b05b dc3d
00000180: 721b 923d e839 fcbc c3dc 973c 0f5b 95bd
00000190: d6a7 3a3e 40ba 9b3d 98cf 5ebd db38 803d
000001a0: c28b e83d f172 8abd cbcf 703e 997a 903c
000001b0: 76b8 1e3d edd8 1c3d 440e 6ebc 5ef1 9d3d
000001c0: 9c45 843d ab06 7d3d c84a 333b dd82 54bd
000001d0: d44e ab3e 1faa debe 59d8 a6be 473e 81be
000001e0: 9d65 a0bf ffac 853d 5d72 0c3e 213a af3d
000001f0: 3097 013d 93cf 98bd 78f2 ea3c 9b7d 7d3d
00000200: e22f 4c3d 8ac9 933d c899 5abc 940d 213b
00000210: 79f4 00bd aac6 0abc 589d 51bc 55ca 8a3d
00000220: 5ba7 fdbc b9cd 8fbd cb62 ddbd 5d0c aabd
00000230: 994a 65bd eba5 0f3d d0f1 2b3d 869e 6a3c
00000240: 91d8 913d 4e23 a1bc f4d1 8a3b c6a6 283b
00000250: c275 2abd 5599 c13d 85a0 043e b5bf 8c3d
00000260: d6bc 763e 9fd9 b1bd 6cde 313d 1de7 043e
00000270: d359 4dbd 06f5 09be 6740 403e cbf6 bc3d
00000280: 2dfc 8c3d d404 bd3c 0588 2fbe 3f51 653e
00000290: 28b7 d63d 836e 303e 3398 0abc 82fa 10be
000002a0: b7a9 a03d 5929 e23d f6e7 fc3d 0113 753d
000002b0: cb0b 7c3d 0b89 183c 65ae 2e3e 9977 2d3e
000002c0: 1dc9 8e3d a28c 27be 9aeb 813e 1c3c db3d
000002d0: 4dfd 903d 8c17 c13d d10e 56be 33a1 683d
000002e0: 11a2 e13c 5426 cc3d 0009 48be df0f 52bd
000002f0: 99c0 5dbd 6f06 873e e8fc 063d 217c 7ebe
00000300: f7f8 febc 323e 42bb 80eb f33c 8d86 0e3d
00000310: e142 883e 7758 353d de20 c3bd cd8b 4b3d
00000320: 6dce 8ebd d05f bbbc 7aa2 b43d 84ae bd3c
00000330: 9860 22bd cd87 23be 9d5f 333e 68d5 01be
00000340: 6541 923d 7048 ecbc 3ec5 cf3d 7d07 10bd
00000350: fd84 22bd 605e 44be f385 9f3d 0cfc 9fbe
00000360: f540 5f38 8a93 2e3e 7f30 793c 101a 783d
00000370: 6c7b 9dbd 24d8 8dbc bb9c 133e c727 cabc
00000380: 9f54 b0bd 11d3 0e3e 9907 aa3d 8066 163e
00000390: a42b a33d 4e55 163e cc1b a5bd 8e0b 3ebe
000003a0: 9129 303d d526 2f3e 7095 503e 55e0 ba3d
000003b0: c315 1f3c 61b3 3d3e 12bc 0abd 07ad cd3d
000003c0: bf00 173e a77f 093e 6372 f9bc 71f6 923d
000003d0: efa8 86bc a549 883d 2a82 b93d 01a8 94bc
000003e0: bfb1 11bc be03 103e 1a54 923e f424 8abc
000003f0: f9db 38bd 59e4 733c 6a0d 653d 3ec4 153e

input_layer.bias f4 [128]
-0.0043951334 -0.178599 0.072804175 0.16302402 0.25248033 0.110225774 -0.0214386 -0.030291237
-0.022221899 -0.14753571 0.13098386 -0.020726588 -0.0032527251 0.2730197 -0.111355744 0.012101984
0.10479807 0.051228616 0.16037151 0.13703272 -0.14152946 -0.1299716 -0.0011243206 0.07172697
-0.14618357 -0.024213834 -0.10013105 0.09978733 0.105775654 0.074714646 -0.025862163 0.25832504
0.17099331 -0.12635279 -0.03953053 -0.1744116 -0.01654298 0.07591186 0.06647083 0.24083991
0.26133367 -0.067188725 -0.10331877 0.10916744 -0.018650172 0.13219777 -0.07738177 -0.040142737
0.05363016 -0.04200804 0.028009564 0.088803835 -0.114521764 -0.08253736 0.1263509 -0.075401
0.2219903 0.24224064 0.07924356 0.25194907 -0.10567331 0.058850754 0.03057158 -0.052152447
0.13499588 -0.08076002 0.1467579 -0.020023407 0.28558388 0.113103844 -0.104151644 -0.05828653
0.08583388 -0.08979742 0.03497433 0.076571316 -0.04362778 -0.10014442 -0.051031373 -0.016986405
-0.096704006 -0.04999271 0.00791111 0.007037831 0.0027416714 0.04378103 0.057687156 -0.0031076327
-0.0011497918 0.18958992 0.008065792 0.10023156 0.15616141 -0.05172976 -0.18142971 0.17360057
0.012781588 0.06794241 0.12470042 0.015550974 0.12513836 -0.17377225 -0.0051260805 0.11838802
-0.069791295 0.122431144 -0.073883384 0.005506318 -0.07340287 -0.0030585832 -0.034507453 -0.017688578
0.13554722 0.14155076 0.02981384 0.011368563 0.23273216 0.1947669 -0.18461902 0.18099888
-0.011185636 0.25436765 -0.047581945 0.08157103 0.09236354 0.009895839 0.06887671 0.12907924
00000000: 0d05 90bb a8e2 36be 5b1a 953d c5ef 263e
00000010: 1a45 813e 0dbe e13d 01a0 afbc 5425 f8bc
00000020: b30a b6bc 9a13 17be a220 063e ceca a9bc
00000030: ac2b 55bb 3dc9 8b3e 7b0e e4bd 6647 463c
00000040: 5fa0 d63d 19d5 513d 6e38 243e 4e52 0c3e
00000050: 19ed 10be 4617 05be f05d 93ba 97e5 923d
00000060: 25b1 15be 175c c6bc 8211 cdbd 4d5d cc3d
00000070: e8a0 d83d fe03 993d e3dc d3bc 2e43 843e
00000080: df18 2f3e a062 01be c4ea 21bd f498 32be
00000090: 2585 87bc ad77 9b3d dc21 883d bd9e 763e
000000a0: 87cd 853e 3e9a 89bd cb98 d3bd 2e93 df3d
000000b0: 3fc8 98bc da5e 073e 557a 9ebd b66c 24bd
000000c0: 4cab 5b3d 9f10 2cbd 5074 e53c c9de b53d
000000d0: 638a eabd 5909 a9bd 2162 013e d76b 9abd
000000e0: 6d51 633e ee0d 783e 734a a23d 78ff 803e
000000f0: 406b d8bd 7d0d 713d 4071 fa3c ce9d 55bd
00000100: 5c3c 0a3e 8265 a5bd b447 163e 2108 a4bc
00000110: 0d38 923e fda2 e73d 754d d5bd dbbd 6ebd
00000120: acc9 af3d b6e7 b7bd 3e41 0f3d 6cd1 9c3d
00000130: 0bb3 32bd 8518 cdbd 4606 51bd 1327 8bbc
00000140: c00c c6bd 28c5 4cbd 9a9d 013c 9b9d e63b
00000150: 9dad 333b bd53 333d 5e49 6c3d 6da9 4bbb
00000160: 9cb4 96ba dc23 423e 6226 043c 3446 cd3d
00000170: c7e8 1f3e 96e2 53bd b6c8 39be 59c4 313e
00000180: de69 513c 6425 8b3d ef62 ff3d 83c9 7e3c
00000190: 4524 003e 5af1 31be aef8 a7bb 6b75 f23d
000001a0: bdee 8ebd 2ebd fa3d 2c50 97bd 586e b43b
000001b0: 3e54 96bd 8372 48bb b057 0dbd a3e7 90bc
000001c0: e4cc 0a3e aff2 103e 273c f43c 3643 3a3c
000001d0: 5751 6e3e f970 473e c50c 3dbe c557 393e
000001e0: f543 37bc 7a3c 823e 49e5 42bd b60e a73d
000001f0: 1829 bd3d 2822 223c 3c0f 8d3d 592d 043e

hidden_layers.0.weight f4 [128, 128]
-0.062435772 -0.0531543 -0.022291025 -0.32575148 0.08984202 0.017400788 -0.010283943 0.009277783
-0.020249713 0.018938426 0.042216785 -0.06283345 -0.020407889 -0.027514702 -0.035207022 -0.054197337
-0.0003669029 0.073746316 0.029338263 -0.07698192 0.02782395 0.017448 0.007358367 -0.021429177
-0.026124379 0.37591043 -0.018345742 -0.07233381 -0.16074699 -0.08834718 0.051184237 0.026512215
-0.005170135 0.0844344 -0.026515896 -0.0022020112 -0.32237783 -0.0036883745 -0.09861666 0.08054938
0.028459428 -0.22430687 0.04461688 0.014878537 -0.0029531708 0.014650945 -0.15264651 0.0022645844
0.059147187 -0.004028219 0.022924095 0.051608 -0.015376234 0.03628439 -0.094050765 -0.07936321
0.09551698 -0.035373017 0.010658226 -0.01081668 -0.020756429 0.0069530234 0.019448563 0.06528238
-0.06560005 0.018888995 -0.016000269 0.039891537 0.01045853 0.038153265 -0.055212468 -0.038652718
0.016788872 0.05497826 0.054966986 -0.086094454 0.024013322 0.020376988 0.0969296 0.05447171
0.025868 0.0012941206 0.06665905 -0.039846934 -0.02380944 0.082310796 -0.031627633 -0.05637376
0.0021592297 0.038703337 -0.03429742 0.09270073 -0.07354921 -0.08654492 0.11914404 -0.025024239
-0.06155086 -0.14621982 0.13880147 -1.190182 0.008858311 0.023656633 0.07077841 0.021221707
-1.0388999 0.059707694 0.0930958 0.07099115 -0.19933842 0.036009822 -0.1199348 -0.4663756
-0.0033895727 -0.038910467 -0.025530238 -0.06907493 0.013414392 0.08400038 0.09552922 0.04933741
0.002894665 -0.06758271 0.12836303 -0.03946323 -0.0224042 -0.06592676 0.055083178 -0.038544804
0.15469433 -0.057129674 -0.049464118 0.013606269 0.014019076 -0.057195198 0.024136899 -0.097274005
-0.37663272 -0.32382113 -0.10032753 0.009407035 -0.09451647 -0.039936963 0.061409727 -0.09395277
-0.034207623 0.0040701 -0.06120561 -0.023269255 -0.09250717 -0.07474308 0.12838598 0.10786164
0.03225928 0.08447004 0.10202201 -0.009765616 -0.008326038 -0.030849617 0.075449534 -0.014996923
0.09194602 0.04244273 0.044139724 0.0061633796 -0.17380764 -0.028194683 0.09481087 -0.101868995
0.05011099 0.060233884 -0.13761537 -0.1274882 0.10070422 -0.016336815 0.06466826 -0.06263911
-0.0444197 0.059141353 0.013668411 0.15148744 0.0076174904 0.07024548 -0.020214371 0.08396251
0.0477965 -0.034527734 -0.03082944 0.025616048 0.05085999 0.0010167984 -0.09540861 -0.005321918
0.06749419 -0.320752 0.065672345 0.049329333 -0.056443162 -0.019903501 -0.017020052 0.096622124
0.10359667 0.058418106 0.049958527 0.21147913 0.10742534 -0.12942004 -0.053099368 0.020326266
0.31467587 0.1682653 -0.070936 0.046439443 -0.2601901 0.004104512 0.094971426 0.018027242
0.091801114 -0.11078158 0.12908228 0.09927512 0.054645915 0.26697788 -0.11444023 0.04870134
-0.12179016 -0.061824348 -0.06098983 0.039035514 0.017202025 -0.24100673 0.034263626 -0.08348502
-0.16730587 -0.030715553 -0.15965162 -0.07860817 -0.053188477 0.077061325 0.03646419 -0.0041216463
-0.09498629 -0.023632457 0.09328124 0.09859306 -0.007878108 0.035585858 -0.14626245 0.051838573
0.059157204 -0.0081185335 -0.03858948 -0.009904366 0.039400544 -0.02756139 0.06858202 0.04116042
00000000: a7bc 7fbd 53b8 59bd ab9b b6bc e6c8 a6be
00000010: 18ff b73d 198c 8e3c fc7d 28bc d801 183c
00000020: bae2 a5bc c224 9b3c 82eb 2c3d d3ae 80bd
00000030: 722e a7bc 8366 e1bc 3d35 10bd 07fe 5dbd
00000040: e05c c0b9 4f08 973d cc56 f03c b2a8 9dbd
00000050: 0def e33c 1cef 8e3c 751e f13b 3e8c afbc
00000060: cb02 d6bc 5577 c03e cf49 96bc c023 94bd
00000070: dc9a 24be 5eef b4bd 90a6 513d 2530 d93c
00000080: 3c6a a9bb f1eb ac3d dd37 d9bc 9e4f 10bb
00000090: b50e a5be a8b8 71bb 88f7 c9bd 13f7 a43d
000000a0: bf23 e93c b3b0 65be 31c0 363d 1bc5 733c
000000b0: fc89 41bb 840a 703c 5e4f 1cbe 6c69 143b
000000c0: 5244 723d 26ff 83bb 50cb bb3c e962 533d
000000d0: 9aec 7bbc f19e 143d b09d c0bd 2e89 a2bd
000000e0: 689e c33d 4ce3 10bd d79f 2e3c 7238 31bc
000000f0: 6309 aabc 30d6 e33b 9852 9f3c c5b2 853d
00000100: 5259 86bd 18bd 9a3c ff12 83bc 4f65 233d
00000110: 415a 2b3c 9946 1c3d 7826 62bd 5052 1ebd
00000120: d188 893c e230 613d 1025 613d 4a52 b0bd
00000130: 96b7 c43c a4ed a63c 0783 c63d ba1d 5f3d
00000140: 21e9 d33c 7b9f a93a 8a84 883d 8a36 23bd
00000150: 040c c3bc 9092 a83d fa8b 01bd 2ce8 66bd
00000160: dd81 0d3b 6487 1e3d 747b 0cbd e1d9 bd3d
00000170: f8a0 96bd 773e b1bd ca01 f43d a2ff ccbc
00000180: c11c 7cbd a6ba 15be f921 0e3e e257 98bf
00000190: 7322 113c 8ecb c13c 45f4 903d 25d9 ad3c
000001a0: acfa 84bf 0e90 743d 03a9 be3d cf63 913d
000001b0: 5f1f 4cbe 097f 133d 60a0 f5bd c8c8 eebe
000001c0: 9823 5ebb 9560 1fbd ca24 d1bc 2877 8dbd
000001d0: 0ac8 5b3c 6408 ac3d d3a4 c33d 0616 4a3d
000001e0: 6cb4 3d3b ce68 8abd 9971 033e 32a4 21bd
000001f0: 0389 b7bc 9c04 87bd e69e 613d 28e1 1dbd
00000200: 3168 1e3e ce00 6abd e39a 4abd d4ec 5e3c
00000210: 44b0 653c 8345 6abd bfba c53c 9837 c7bd
00000220: 01d6 c0be e2cb a5be 8578 cdbd f71f 1a3c
00000230: da91 c1bd f194 23bd c488 7b3d 4f6a c0bd
00000240: 4b1d 0cbd 795e 853b bcb2 7abd 2a9f bebc
00000250: 6674 bdbd e612 99bd 9d77 033e 90e6 dc3d
00000260: 4f22 043d a1fe ac3d eaf0 d03d f6ff 1fbc
00000270: ef69 08bc 56b8 fcbc 4985 9a3d a7b5 75bc
00000280: 324e bc3d 6ed8 2d3d dbcb 343d 2df6 c93b
00000290: a1fa 31be 89f8 e6bc 342c c23d b1a0 d0bd
000002a0: 2e41 4d3d ceb7 763d 0beb 0cbe 448c 02be
000002b0: 043e ce3d c9d4 85bc cb70 843d ef48 80bd
000002c0: 6ef1 35bd 343e 723d 79f1 5f3c 861f 1b3e
000002d0: 249c f93b dddc 8f3d 9c98 a5bc 89f4 ab3d
000002e0: 43c6 433d f46c 0dbd 068e fcbc bfd8 d13c
000002f0: 9152 503d 1846 853a 9765 c3bd 7c63 aebb
00000300: 653a 8a3d 9b39 a4be 397f 863d 8e0d 4a3d
00000310: f230 67bd ab0c a3bc a36d 8bbc d2e1 c53d
00000320: 7e2a d43d d347 6f3d 50a1 4c3d fc8d 583e
00000330: d101 dc3d b086 04be b97e 59bd 4583 a63c
00000340: 321d a13e bd4d 2c3e e546 91bd 4937 3e3d
00000350: a337 85be 247f 863b 6180 c23d dead 933c
00000360: 3902 bc3d 74e1 e2bd 252e 043e c150 cb3d
00000370: 65d4 5f3d 53b1 883e a45f eabd 0e7b 473d
00000380: 1f6d f9bd 873b 7dbd 79d0 79bd b4e3 1f3d
00000390: 43eb 8c3c 78ca 76be 0458 0c3d 32fa aabd
000003a0: 3b52 2bbe 2f9f fbbc b77b 23be 52fd a0bd
000003b0: 29dc 59bd 54d2 9d3d 795b 153d e00e 87bb
000003c0: 2c88 c2bd db98 c1bc 3c0a bf3d 29eb c93d
000003d0: 2e13 01bc 7ac2 113d d3c5 15be af54 543d
000003e0: d34e 723d 9903 05bc 0110 1ebd ec45 22bc
000003f0: 7762 213d 6dc8 e1bc bb74 8c3d d497 283d

hidden_layers.0.bias f4 [128]
0.09591234 -0.041711845 0.037086915 0.054667745 0.016493507 0.1017943 0.17037109 -0.022815611
0.11622864 0.03628681 0.075127035 0.047263313 0.06416737 0.13065064 0.0046722395 -0.06174653
0.02983688 0.004218635 -0.049493067 0.14914453 -0.00045982652 0.2075477 0.010344185 0.16400388
0.058956232 0.01470274 0.020324133 -0.058823135 0.13549432 0.13537785 0.16376846 0.019652072
0.1305735 0.063395865 -0.017364936 -0.034046087 -0.014673507 0.1297466 0.114552386 0.092325605
0.0163478 0.045681737 0.100619696 0.015205002 0.06624522 0.026453914 0.0052503147 0.020039514
-0.0066408706 0.01643805 -0.0013887942 0.07010126 0.050195273 0.119471006 0.016922187 0.07303213
0.09684801 -0.031246936 -0.040784515 0.08959709 -0.08421728 0.05561818 -0.04008825 0.042628177
-0.035698883 -0.11765069 0.0720002 0.06469164 -0.06074966 0.028787639 0.023037884 -0.09502969
-0.07743112 0.0043523274 0.06943773 -0.071283564 -0.024060532 -0.072309524 0.0002847588 0.12901954
0.0131377885 -0.04422032 -0.10228635 -0.012455157 0.024415558 0.05110997 0.022229694 0.016606234
-0.1030232 0.03233652 -0.088130265 0.1494821 0.16991998 -0.0655684 -0.04191362 0.03301379
-0.037876606 -0.11195407 -0.05800143 0.18331559 0.09303021 -0.07703557 0.045013964 0.09052129
-0.05312689 0.0773955 0.025831455 -0.026121998 -0.035656273 0.09575019 -0.036372785 0.18492058
0.105543174 0.05631594 0.12384057 -0.09196018 0.21490619 0.12804058 0.04030718 -0.10566141
0.14689963 -0.023923818 0.11190419 -0.026551792 -0.056420375 -0.0012211849 -0.010358911 -0.027234778
00000000: b06d c43d 0ada 2abd 73e8 173d 49eb 5f3d
00000010: 641d 873c 8879 d03d c275 2e3e cee7 babc
00000020: 4809 ee3d 7aa1 143d 34dc 993d 2d97 413d
00000030: 2f6a 833d 48c9 053e 9619 993b eee9 7cbd
00000040: 796c f43c 7a3c 8a3b 3eb9 4abd 58b9 183e
00000050: df14 f1b9 6287 543e a87a 293c a2f0 273e
00000060: 177c 713d c3e3 703c cc7e a63c 87f0 70bd
00000070: 06bf 0a3e 7ea0 0a3e ebb2 273e 62fd a03c
00000080: 0fb5 053e b1d5 813d e940 8ebc e973 0bbd
00000090: 2669 70bc 4bdc 043e 719a ea3d 3515 bd3d
000000a0: d2eb 853c c61c 3b3d b311 ce3d 671e 793c
000000b0: 93ab 873d e1b5 d83c d50a ac3b e829 a43c
000000c0: a99b d9bb 17a9 863c 3308 b6ba 4091 8f3d
000000d0: 8f99 4d3d 37ad f43d 66a0 8a3c df91 953d
000000e0: 4058 c63d 93f9 ffbc aa0d 27bd ae7e b73d
000000f0: 1c7a acbd e4cf 633d 9433 24bd e29a 2e3d
00000100: fe38 12bd d8f2 f0bd d774 933d 0d7d 843d
00000110: a3d4 78bd 0ed4 eb3c f2b9 bc3c ed9e c2bd
00000120: 3594 9ebd f89d 8e3b 5e35 8e3d 1efd 91bd
00000130: 981a c5bc 0417 94bd ae4b 9539 b31d 043e
00000140: e13f 573c 5e20 35bd 827b d1bd b710 4cbc
00000150: 2303 c83c b058 513d 0c1b b63c cc09 883c
00000160: d4fd d2bd 4c73 043d a47d b4bd d611 193e
00000170: 81ff 2d3e ba48 86bd 9ead 2bbd 7839 073d
00000180: 8024 1bbd 2d48 e5bd e892 6dbd 15b7 3b3e
00000190: 9f86 be3d d3c4 9dbd 9060 383d 3a63 b93d
000001a0: 959b 59bd 8881 9e3d 7d9c d33c cdfd d5bc
000001b0: 500c 12bd ad18 c43d a1fb 14bd d25b 3d3e
000001c0: 0527 d83d 8bab 663d 20a0 fd3d 9e55 bcbd
000001d0: 5e10 5c3e 121d 033e 2419 253d 0265 d8bd
000001e0: db6c 163e e2fb c3bc 062e e53d 2583 d9bc
000001f0: 0d19 67bd 2a10 a0ba 6cb8 29bc 781b dfbc

output_layer.weight f4 [4, 128]
-0.23738696 0.01969076 0.04664293 -0.10197164 0.44633585 0.040195987 0.10092439 0.24837829
0.06414692 -0.0033588987 0.12822223 0.008939744 0.021452852 0.009405886 0.72556156 0.06277421
0.025728552 0.026440457 -0.09486218 0.15110675 -0.07474778 0.024214217 0.02333745 0.1213831
0.0717179 0.218416 0.02048975 0.0052410765 0.15351015 0.101487465 0.09023586 -0.035735495
0.0510127 0.21801293 0.09581923 -0.13030423 -0.02701361 0.10896332 0.14094578 0.05892947
0.00026535374 0.6274254 0.08848375 -0.04297139 0.03287194 -0.095229514 0.63389903 0.19973232
0.015970647 0.117513485 -0.09298932 0.436981 0.10776345 0.099412255 0.026035726 0.030571304
0.039175767 -0.18299651 0.005096918 0.020701736 -0.064397134 -0.07678651 -0.3870478 -0.060493365
-0.3365319 -0.016568588 0.0802339 0.011193948 -0.2899482 0.101920955 -0.022938542 -0.024548804
-0.29504952 0.5377899 0.32294598 -0.30948475 0.03853326 0.117944896 -0.72252166 0.07710988
-0.31445444 0.022102626 -0.05173468 0.11006973 0.45650542 0.006533751 0.03506937 0.31240377
-0.2234231 0.09374773 -0.10411651 0.053162713 0.055575747 0.03275661 0.110452004 0.3482005
-0.0013964344 -0.051252134 -0.075026624 0.11321228 0.015624527 0.07852845 0.12187819 -0.009593974
0.07900551 0.23060445 0.03355255 0.028566282 -0.08693007 -0.0056514647 0.046805035 0.08358735
0.13246258 0.0775949 0.123188615 0.071971364 0.11057145 0.10205587 0.070497364 -0.062588654
0.05355736 -0.11595168 0.08258104 -0.079610296 0.050109748 0.0015119154 -0.34554324 -0.0144557115
-0.09133733 -0.0022435042 -0.05761764 -0.19664688 0.8313248 -0.024780685 0.036029704 0.18787797
0.08604363 -0.015217875 0.08637539 0.027053034 0.08628674 0.034139253 0.5144229 -0.05514472
0.108825125 0.082255594 -0.015523486 0.14802317 -0.06838444 0.13375132 0.089261785 0.062456917
0.025586635 0.1787365 -0.11704127 -0.19744678 0.16191003 0.06427376 0.056443293 -0.038833473
0.06599313 0.30327544 0.17181142 -0.1488227 -0.36382538 -0.010690244 0.11875132 0.02094748
-0.012370932 0.6135899 0.049228452 -0.055751555 -0.02018042 -0.13814217 0.63441503 0.120909005
-0.006391511 0.010618832 -0.034507353 0.30680713 0.056201532 0.09906414 0.017869461 0.10528283
0.054856826 -0.21984763 0.015633987 -0.09887497 0.034410715 0.0022653632 -0.25134966 0.14293912
-0.26734108 -0.038521774 0.07099153 0.15161209 -0.1902542 0.12120556 -0.0070133936 0.09577132
-0.23171322 0.85899484 0.37533447 -0.17226149 0.0891745 0.22246258 -0.028505035 0.08850546
-0.14184088 -0.102207676 -0.09056402 0.24199452 0.4432448 0.11422189 -0.002433654 0.25570083
-0.23948248 -0.03958039 -0.11481225 0.07779192 0.11050104 0.059504665 0.12138726 0.44444296
-0.0500765 -0.055323202 -0.06781396 0.038686324 0.04006853 -0.12103592 0.1112802 0.09748781
0.059159208 0.30629316 0.093826555 0.08725956 -0.103643626 0.058910277 0.073295236 0.13379492
0.070203535 0.08340244 0.07819542 -0.11197825 0.1303822 0.10880009 0.053873364 -0.02907547
0.11059642 -0.051168244 0.087117225 -0.08663041 0.00928261 0.4274021 -0.27703702 -0.045538325
00000000: 9115 73be 844e a13c a80c 3f3d 82d6 d0bd
00000010: 2286 e43e 8ca4 243d 72b1 ce3d e156 7e3e
00000020: 765f 833d f820 5cbb b04c 033e 0178 123c
00000030: e4bd af3c 251b 1a3c 67be 393f c48f 803d
00000040: afc4 d23c a899 d83c 1a47 c2bd babb 1a3e
00000050: 5d15 99bd e55c c63c 2e2e bf3c b497 f83d
00000060: d6e0 923d 72a8 5f3e 1fda a73c 56bd ab3b
00000070: c431 1d3e a9d8 cf3d 94cd b83d 625f 12bd
00000080: b1f2 503d c83e 5f3e df3c c43d 796e 05be
00000090: a54b ddbc 2928 df3d 1754 103e 0760 713d
000000a0: 2d1f 8b39 f39e 203f f836 b53d c502 30bd
000000b0: baa4 063d b107 c3bd 3547 223f a186 4c3e
000000c0: e0d4 823c e9aa f03d 2f71 bebd f9bb df3e
000000d0: 15b3 dc3d a798 cb3d e048 d53c ac70 fa3c
000000e0: c576 203d 7063 3bbe 0c04 a73b b096 a93c
000000f0: a5e2 83bd 3f42 9dbd 212b c6be e4c7 77bd
00000100: e94d acbe d9ba 87bc ac51 a43d d266 373c
00000110: 1774 94be efbb d03d 9ce9 bbbc 931a c9bc
00000120: bb10 97be 99ac 093f 2d59 a53e c974 9ebe
00000130: 0dd5 1d3d 188d f13d 2ef7 38bf c9eb 9d3d
00000140: 2c00 a1be 9110 b53c bee7 53bd 3d6c e13d
00000150: 14bb e93e 1319 d63b e6a4 0f3d 63f3 9f3e
00000160: 06c9 64be cffe bf3d 093b d5bd 25c1 593d
00000170: 65a3 633d cc2b 063d a934 e23d 5647 b23e
00000180: 9008 b7ba c2ed 51bd 8fa7 99bd d7db e73d
00000190: 04fe 7f3c 86d3 a03d 469b f93d 0b30 1dbc
000001a0: a4cd a13d 9323 6c3e 666e 093d d603 ea3c
000001b0: 6408 b2bd ec2f b9bb a3b6 3f3d d82f ab3d
000001c0: 45a4 073e 13ea 9e3d 504a fc3d b965 933d
000001d0: 4973 e23d ab02 d13d ec60 903d 7b2e 80bd
000001e0: f65e 5b3d 1378 edbd 4020 a93d b90a a3bd
000001f0: e13f 4d3d 762b c63a 0beb b0be a6d7 6cbc
00000200: 110f bbbd c107 13bb 7900 6cbd cd5d 49be
00000210: b4d1 543f dd00 cbbc e293 133d 1563 403e
00000220: a537 b03d 6554 79bc 95e5 b03d 539e dd3c
00000230: 1ab7 b03d 9ad5 0b3d 38b1 033f 6edf 61bd
00000240: b5df de3d 9f75 a83d 3856 7ebc 6393 173e
00000250: 240d 8cbd 1bf6 083e e2ce b63d d3d2 7f3d
00000260: 109b d13c b306 373e 55b3 efbd 7d2f 4abe
00000270: becb 253e f6a1 833d 1531 673d d90f 1fbd
00000280: 6827 873d eb46 9b3e 55ef 2f3e fa64 18be
00000290: 5247 babe 2226 2fbc e433 f33d 0d9a ab3c
000002a0: 73af 4abc 3a14 1d3f c6a3 493d be5b 64bd
000002b0: 6851 a5bc 2475 0dbe 0669 223f 249f f73d
000002c0: e16f d1bb 9cfa 2d3c 9557 0dbd d315 9d3e
000002d0: 9433 663d 24e2 ca3d fa62 923c 869e d73d
000002e0: 8db1 603d bd1f 61be d912 803c f67e cabd
000002f0: 40f2 0c3d 7d76 143b e7b0 80be a25e 123e
00000300: eee0 88be 02c9 1dbd 0264 913d 3340 1b3e
00000310: ffd1 42be 9f3a f83d 9cd0 e5bb c123 c43d
00000320: 3b46 6dbe 16e7 5b3f d72b c03e 5165 30be
00000330: 1fa1 b63d 3bcd 633e 6483 e9bc 5a42 b53d
00000340: bc3e 11be 4252 d1bd a179 b9bd 69cd 773e
00000350: fcf0 e23e 2bed e93d f07d 1fbb 38eb 823e
00000360: e53a 75be 0c1f 22bd af22 ebbd 5f51 9f3d
00000370: 5f4e e23d 2abb 733d e299 f83d 078e e33e
00000380: 041d 4dbd 959a 62bd 0ce2 8abd 8d75 1e3d
00000390: e61e 243d aee1 f7bd e0e6 e33d b0a7 c73d
000003a0: ed50 723d 75d2 9c3e 2328 c03d 24b5 b23d
000003b0: 1c43 d4bd e74b 713d d01b 963d 8901 093e
000003c0: dfc6 8f3d e6ce aa3d ec24 a03d da54 e5bd
000003d0: e982 053e 95d2 de3d 51aa 5c3d ae2f eebc
000003e0: 6080 e23d cb95 51bd 846a b23d 496b b1bd
000003f0: 1716 183c 73d4 da3e ccd7 8dbe 6586 3abd

output_layer.bias f4 [4]
0.07160141 0.04177641 0.12561774 0.13552664
00000000: c3a3 923d be1d 2b3d f0a1 003e 7fc7 0a3e
